<?xml version="1.0" ?>
<net name="pose_iter_440000" version="10">
	<layers>
		<layer id="0" name="image" type="Parameter" version="opset1">
			<data shape="1, 3, 368, 368" element_type="f32"/>
			<output>
				<port id="0" precision="FP32" names="image">
					<dim>1</dim>
					<dim>3</dim>
					<dim>368</dim>
					<dim>368</dim>
				</port>
			</output>
		</layer>
		<layer id="1" name="185" type="Const" version="opset1">
			<data element_type="f32" shape="64, 3, 3, 3" offset="0" size="6912"/>
			<output>
				<port id="0" precision="FP32">
					<dim>64</dim>
					<dim>3</dim>
					<dim>3</dim>
					<dim>3</dim>
				</port>
			</output>
		</layer>
		<layer id="2" name="conv1_1/WithoutBiases" type="Convolution" version="opset1">
			<data strides="1, 1" dilations="1, 1" pads_begin="1, 1" pads_end="1, 1" auto_pad="explicit"/>
			<input>
				<port id="0" precision="FP32">
					<dim>1</dim>
					<dim>3</dim>
					<dim>368</dim>
					<dim>368</dim>
				</port>
				<port id="1" precision="FP32">
					<dim>64</dim>
					<dim>3</dim>
					<dim>3</dim>
					<dim>3</dim>
				</port>
			</input>
			<output>
				<port id="2" precision="FP32">
					<dim>1</dim>
					<dim>64</dim>
					<dim>368</dim>
					<dim>368</dim>
				</port>
			</output>
		</layer>
		<layer id="3" name="conv1_1/Dims3394" type="Const" version="opset1">
			<data element_type="f32" shape="1, 64, 1, 1" offset="6912" size="256"/>
			<output>
				<port id="0" precision="FP32">
					<dim>1</dim>
					<dim>64</dim>
					<dim>1</dim>
					<dim>1</dim>
				</port>
			</output>
		</layer>
		<layer id="4" name="conv1_1" type="Add" version="opset1">
			<data auto_broadcast="numpy"/>
			<input>
				<port id="0" precision="FP32">
					<dim>1</dim>
					<dim>64</dim>
					<dim>368</dim>
					<dim>368</dim>
				</port>
				<port id="1" precision="FP32">
					<dim>1</dim>
					<dim>64</dim>
					<dim>1</dim>
					<dim>1</dim>
				</port>
			</input>
			<output>
				<port id="2" precision="FP32" names="conv1_1">
					<dim>1</dim>
					<dim>64</dim>
					<dim>368</dim>
					<dim>368</dim>
				</port>
			</output>
		</layer>
		<layer id="5" name="relu1_1" type="ReLU" version="opset1">
			<input>
				<port id="0" precision="FP32">
					<dim>1</dim>
					<dim>64</dim>
					<dim>368</dim>
					<dim>368</dim>
				</port>
			</input>
			<output>
				<port id="1" precision="FP32" names="conv1_1">
					<dim>1</dim>
					<dim>64</dim>
					<dim>368</dim>
					<dim>368</dim>
				</port>
			</output>
		</layer>
		<layer id="6" name="315" type="Const" version="opset1">
			<data element_type="f32" shape="64, 64, 3, 3" offset="7168" size="147456"/>
			<output>
				<port id="0" precision="FP32">
					<dim>64</dim>
					<dim>64</dim>
					<dim>3</dim>
					<dim>3</dim>
				</port>
			</output>
		</layer>
		<layer id="7" name="conv1_2/WithoutBiases" type="Convolution" version="opset1">
			<data strides="1, 1" dilations="1, 1" pads_begin="1, 1" pads_end="1, 1" auto_pad="explicit"/>
			<input>
				<port id="0" precision="FP32">
					<dim>1</dim>
					<dim>64</dim>
					<dim>368</dim>
					<dim>368</dim>
				</port>
				<port id="1" precision="FP32">
					<dim>64</dim>
					<dim>64</dim>
					<dim>3</dim>
					<dim>3</dim>
				</port>
			</input>
			<output>
				<port id="2" precision="FP32">
					<dim>1</dim>
					<dim>64</dim>
					<dim>368</dim>
					<dim>368</dim>
				</port>
			</output>
		</layer>
		<layer id="8" name="conv1_2/Dims3220" type="Const" version="opset1">
			<data element_type="f32" shape="1, 64, 1, 1" offset="154624" size="256"/>
			<output>
				<port id="0" precision="FP32">
					<dim>1</dim>
					<dim>64</dim>
					<dim>1</dim>
					<dim>1</dim>
				</port>
			</output>
		</layer>
		<layer id="9" name="conv1_2" type="Add" version="opset1">
			<data auto_broadcast="numpy"/>
			<input>
				<port id="0" precision="FP32">
					<dim>1</dim>
					<dim>64</dim>
					<dim>368</dim>
					<dim>368</dim>
				</port>
				<port id="1" precision="FP32">
					<dim>1</dim>
					<dim>64</dim>
					<dim>1</dim>
					<dim>1</dim>
				</port>
			</input>
			<output>
				<port id="2" precision="FP32" names="conv1_2">
					<dim>1</dim>
					<dim>64</dim>
					<dim>368</dim>
					<dim>368</dim>
				</port>
			</output>
		</layer>
		<layer id="10" name="relu1_2" type="ReLU" version="opset1">
			<input>
				<port id="0" precision="FP32">
					<dim>1</dim>
					<dim>64</dim>
					<dim>368</dim>
					<dim>368</dim>
				</port>
			</input>
			<output>
				<port id="1" precision="FP32" names="conv1_2">
					<dim>1</dim>
					<dim>64</dim>
					<dim>368</dim>
					<dim>368</dim>
				</port>
			</output>
		</layer>
		<layer id="11" name="pool1_stage1" type="MaxPool" version="opset1">
			<data strides="2, 2" pads_begin="0, 0" pads_end="0, 0" kernel="2, 2" rounding_type="ceil" auto_pad="explicit"/>
			<input>
				<port id="0" precision="FP32">
					<dim>1</dim>
					<dim>64</dim>
					<dim>368</dim>
					<dim>368</dim>
				</port>
			</input>
			<output>
				<port id="1" precision="FP32" names="pool1_stage1">
					<dim>1</dim>
					<dim>64</dim>
					<dim>184</dim>
					<dim>184</dim>
				</port>
			</output>
		</layer>
		<layer id="12" name="287" type="Const" version="opset1">
			<data element_type="f32" shape="128, 64, 3, 3" offset="154880" size="294912"/>
			<output>
				<port id="0" precision="FP32">
					<dim>128</dim>
					<dim>64</dim>
					<dim>3</dim>
					<dim>3</dim>
				</port>
			</output>
		</layer>
		<layer id="13" name="conv2_1/WithoutBiases" type="Convolution" version="opset1">
			<data strides="1, 1" dilations="1, 1" pads_begin="1, 1" pads_end="1, 1" auto_pad="explicit"/>
			<input>
				<port id="0" precision="FP32">
					<dim>1</dim>
					<dim>64</dim>
					<dim>184</dim>
					<dim>184</dim>
				</port>
				<port id="1" precision="FP32">
					<dim>128</dim>
					<dim>64</dim>
					<dim>3</dim>
					<dim>3</dim>
				</port>
			</input>
			<output>
				<port id="2" precision="FP32">
					<dim>1</dim>
					<dim>128</dim>
					<dim>184</dim>
					<dim>184</dim>
				</port>
			</output>
		</layer>
		<layer id="14" name="conv2_1/Dims3550" type="Const" version="opset1">
			<data element_type="f32" shape="1, 128, 1, 1" offset="449792" size="512"/>
			<output>
				<port id="0" precision="FP32">
					<dim>1</dim>
					<dim>128</dim>
					<dim>1</dim>
					<dim>1</dim>
				</port>
			</output>
		</layer>
		<layer id="15" name="conv2_1" type="Add" version="opset1">
			<data auto_broadcast="numpy"/>
			<input>
				<port id="0" precision="FP32">
					<dim>1</dim>
					<dim>128</dim>
					<dim>184</dim>
					<dim>184</dim>
				</port>
				<port id="1" precision="FP32">
					<dim>1</dim>
					<dim>128</dim>
					<dim>1</dim>
					<dim>1</dim>
				</port>
			</input>
			<output>
				<port id="2" precision="FP32" names="conv2_1">
					<dim>1</dim>
					<dim>128</dim>
					<dim>184</dim>
					<dim>184</dim>
				</port>
			</output>
		</layer>
		<layer id="16" name="relu2_1" type="ReLU" version="opset1">
			<input>
				<port id="0" precision="FP32">
					<dim>1</dim>
					<dim>128</dim>
					<dim>184</dim>
					<dim>184</dim>
				</port>
			</input>
			<output>
				<port id="1" precision="FP32" names="conv2_1">
					<dim>1</dim>
					<dim>128</dim>
					<dim>184</dim>
					<dim>184</dim>
				</port>
			</output>
		</layer>
		<layer id="17" name="223" type="Const" version="opset1">
			<data element_type="f32" shape="128, 128, 3, 3" offset="450304" size="589824"/>
			<output>
				<port id="0" precision="FP32">
					<dim>128</dim>
					<dim>128</dim>
					<dim>3</dim>
					<dim>3</dim>
				</port>
			</output>
		</layer>
		<layer id="18" name="conv2_2/WithoutBiases" type="Convolution" version="opset1">
			<data strides="1, 1" dilations="1, 1" pads_begin="1, 1" pads_end="1, 1" auto_pad="explicit"/>
			<input>
				<port id="0" precision="FP32">
					<dim>1</dim>
					<dim>128</dim>
					<dim>184</dim>
					<dim>184</dim>
				</port>
				<port id="1" precision="FP32">
					<dim>128</dim>
					<dim>128</dim>
					<dim>3</dim>
					<dim>3</dim>
				</port>
			</input>
			<output>
				<port id="2" precision="FP32">
					<dim>1</dim>
					<dim>128</dim>
					<dim>184</dim>
					<dim>184</dim>
				</port>
			</output>
		</layer>
		<layer id="19" name="conv2_2/Dims3136" type="Const" version="opset1">
			<data element_type="f32" shape="1, 128, 1, 1" offset="1040128" size="512"/>
			<output>
				<port id="0" precision="FP32">
					<dim>1</dim>
					<dim>128</dim>
					<dim>1</dim>
					<dim>1</dim>
				</port>
			</output>
		</layer>
		<layer id="20" name="conv2_2" type="Add" version="opset1">
			<data auto_broadcast="numpy"/>
			<input>
				<port id="0" precision="FP32">
					<dim>1</dim>
					<dim>128</dim>
					<dim>184</dim>
					<dim>184</dim>
				</port>
				<port id="1" precision="FP32">
					<dim>1</dim>
					<dim>128</dim>
					<dim>1</dim>
					<dim>1</dim>
				</port>
			</input>
			<output>
				<port id="2" precision="FP32" names="conv2_2">
					<dim>1</dim>
					<dim>128</dim>
					<dim>184</dim>
					<dim>184</dim>
				</port>
			</output>
		</layer>
		<layer id="21" name="relu2_2" type="ReLU" version="opset1">
			<input>
				<port id="0" precision="FP32">
					<dim>1</dim>
					<dim>128</dim>
					<dim>184</dim>
					<dim>184</dim>
				</port>
			</input>
			<output>
				<port id="1" precision="FP32" names="conv2_2">
					<dim>1</dim>
					<dim>128</dim>
					<dim>184</dim>
					<dim>184</dim>
				</port>
			</output>
		</layer>
		<layer id="22" name="pool2_stage1" type="MaxPool" version="opset1">
			<data strides="2, 2" pads_begin="0, 0" pads_end="0, 0" kernel="2, 2" rounding_type="ceil" auto_pad="explicit"/>
			<input>
				<port id="0" precision="FP32">
					<dim>1</dim>
					<dim>128</dim>
					<dim>184</dim>
					<dim>184</dim>
				</port>
			</input>
			<output>
				<port id="1" precision="FP32" names="pool2_stage1">
					<dim>1</dim>
					<dim>128</dim>
					<dim>92</dim>
					<dim>92</dim>
				</port>
			</output>
		</layer>
		<layer id="23" name="197" type="Const" version="opset1">
			<data element_type="f32" shape="256, 128, 3, 3" offset="1040640" size="1179648"/>
			<output>
				<port id="0" precision="FP32">
					<dim>256</dim>
					<dim>128</dim>
					<dim>3</dim>
					<dim>3</dim>
				</port>
			</output>
		</layer>
		<layer id="24" name="conv3_1/WithoutBiases" type="Convolution" version="opset1">
			<data strides="1, 1" dilations="1, 1" pads_begin="1, 1" pads_end="1, 1" auto_pad="explicit"/>
			<input>
				<port id="0" precision="FP32">
					<dim>1</dim>
					<dim>128</dim>
					<dim>92</dim>
					<dim>92</dim>
				</port>
				<port id="1" precision="FP32">
					<dim>256</dim>
					<dim>128</dim>
					<dim>3</dim>
					<dim>3</dim>
				</port>
			</input>
			<output>
				<port id="2" precision="FP32">
					<dim>1</dim>
					<dim>256</dim>
					<dim>92</dim>
					<dim>92</dim>
				</port>
			</output>
		</layer>
		<layer id="25" name="conv3_1/Dims3094" type="Const" version="opset1">
			<data element_type="f32" shape="1, 256, 1, 1" offset="2220288" size="1024"/>
			<output>
				<port id="0" precision="FP32">
					<dim>1</dim>
					<dim>256</dim>
					<dim>1</dim>
					<dim>1</dim>
				</port>
			</output>
		</layer>
		<layer id="26" name="conv3_1" type="Add" version="opset1">
			<data auto_broadcast="numpy"/>
			<input>
				<port id="0" precision="FP32">
					<dim>1</dim>
					<dim>256</dim>
					<dim>92</dim>
					<dim>92</dim>
				</port>
				<port id="1" precision="FP32">
					<dim>1</dim>
					<dim>256</dim>
					<dim>1</dim>
					<dim>1</dim>
				</port>
			</input>
			<output>
				<port id="2" precision="FP32" names="conv3_1">
					<dim>1</dim>
					<dim>256</dim>
					<dim>92</dim>
					<dim>92</dim>
				</port>
			</output>
		</layer>
		<layer id="27" name="relu3_1" type="ReLU" version="opset1">
			<input>
				<port id="0" precision="FP32">
					<dim>1</dim>
					<dim>256</dim>
					<dim>92</dim>
					<dim>92</dim>
				</port>
			</input>
			<output>
				<port id="1" precision="FP32" names="conv3_1">
					<dim>1</dim>
					<dim>256</dim>
					<dim>92</dim>
					<dim>92</dim>
				</port>
			</output>
		</layer>
		<layer id="28" name="323" type="Const" version="opset1">
			<data element_type="f32" shape="256, 256, 3, 3" offset="2221312" size="2359296"/>
			<output>
				<port id="0" precision="FP32">
					<dim>256</dim>
					<dim>256</dim>
					<dim>3</dim>
					<dim>3</dim>
				</port>
			</output>
		</layer>
		<layer id="29" name="conv3_2/WithoutBiases" type="Convolution" version="opset1">
			<data strides="1, 1" dilations="1, 1" pads_begin="1, 1" pads_end="1, 1" auto_pad="explicit"/>
			<input>
				<port id="0" precision="FP32">
					<dim>1</dim>
					<dim>256</dim>
					<dim>92</dim>
					<dim>92</dim>
				</port>
				<port id="1" precision="FP32">
					<dim>256</dim>
					<dim>256</dim>
					<dim>3</dim>
					<dim>3</dim>
				</port>
			</input>
			<output>
				<port id="2" precision="FP32">
					<dim>1</dim>
					<dim>256</dim>
					<dim>92</dim>
					<dim>92</dim>
				</port>
			</output>
		</layer>
		<layer id="30" name="conv3_2/Dims3226" type="Const" version="opset1">
			<data element_type="f32" shape="1, 256, 1, 1" offset="4580608" size="1024"/>
			<output>
				<port id="0" precision="FP32">
					<dim>1</dim>
					<dim>256</dim>
					<dim>1</dim>
					<dim>1</dim>
				</port>
			</output>
		</layer>
		<layer id="31" name="conv3_2" type="Add" version="opset1">
			<data auto_broadcast="numpy"/>
			<input>
				<port id="0" precision="FP32">
					<dim>1</dim>
					<dim>256</dim>
					<dim>92</dim>
					<dim>92</dim>
				</port>
				<port id="1" precision="FP32">
					<dim>1</dim>
					<dim>256</dim>
					<dim>1</dim>
					<dim>1</dim>
				</port>
			</input>
			<output>
				<port id="2" precision="FP32" names="conv3_2">
					<dim>1</dim>
					<dim>256</dim>
					<dim>92</dim>
					<dim>92</dim>
				</port>
			</output>
		</layer>
		<layer id="32" name="relu3_2" type="ReLU" version="opset1">
			<input>
				<port id="0" precision="FP32">
					<dim>1</dim>
					<dim>256</dim>
					<dim>92</dim>
					<dim>92</dim>
				</port>
			</input>
			<output>
				<port id="1" precision="FP32" names="conv3_2">
					<dim>1</dim>
					<dim>256</dim>
					<dim>92</dim>
					<dim>92</dim>
				</port>
			</output>
		</layer>
		<layer id="33" name="337" type="Const" version="opset1">
			<data element_type="f32" shape="256, 256, 3, 3" offset="4581632" size="2359296"/>
			<output>
				<port id="0" precision="FP32">
					<dim>256</dim>
					<dim>256</dim>
					<dim>3</dim>
					<dim>3</dim>
				</port>
			</output>
		</layer>
		<layer id="34" name="conv3_3/WithoutBiases" type="Convolution" version="opset1">
			<data strides="1, 1" dilations="1, 1" pads_begin="1, 1" pads_end="1, 1" auto_pad="explicit"/>
			<input>
				<port id="0" precision="FP32">
					<dim>1</dim>
					<dim>256</dim>
					<dim>92</dim>
					<dim>92</dim>
				</port>
				<port id="1" precision="FP32">
					<dim>256</dim>
					<dim>256</dim>
					<dim>3</dim>
					<dim>3</dim>
				</port>
			</input>
			<output>
				<port id="2" precision="FP32">
					<dim>1</dim>
					<dim>256</dim>
					<dim>92</dim>
					<dim>92</dim>
				</port>
			</output>
		</layer>
		<layer id="35" name="conv3_3/Dims3568" type="Const" version="opset1">
			<data element_type="f32" shape="1, 256, 1, 1" offset="6940928" size="1024"/>
			<output>
				<port id="0" precision="FP32">
					<dim>1</dim>
					<dim>256</dim>
					<dim>1</dim>
					<dim>1</dim>
				</port>
			</output>
		</layer>
		<layer id="36" name="conv3_3" type="Add" version="opset1">
			<data auto_broadcast="numpy"/>
			<input>
				<port id="0" precision="FP32">
					<dim>1</dim>
					<dim>256</dim>
					<dim>92</dim>
					<dim>92</dim>
				</port>
				<port id="1" precision="FP32">
					<dim>1</dim>
					<dim>256</dim>
					<dim>1</dim>
					<dim>1</dim>
				</port>
			</input>
			<output>
				<port id="2" precision="FP32" names="conv3_3">
					<dim>1</dim>
					<dim>256</dim>
					<dim>92</dim>
					<dim>92</dim>
				</port>
			</output>
		</layer>
		<layer id="37" name="relu3_3" type="ReLU" version="opset1">
			<input>
				<port id="0" precision="FP32">
					<dim>1</dim>
					<dim>256</dim>
					<dim>92</dim>
					<dim>92</dim>
				</port>
			</input>
			<output>
				<port id="1" precision="FP32" names="conv3_3">
					<dim>1</dim>
					<dim>256</dim>
					<dim>92</dim>
					<dim>92</dim>
				</port>
			</output>
		</layer>
		<layer id="38" name="263" type="Const" version="opset1">
			<data element_type="f32" shape="256, 256, 3, 3" offset="6941952" size="2359296"/>
			<output>
				<port id="0" precision="FP32">
					<dim>256</dim>
					<dim>256</dim>
					<dim>3</dim>
					<dim>3</dim>
				</port>
			</output>
		</layer>
		<layer id="39" name="conv3_4/WithoutBiases" type="Convolution" version="opset1">
			<data strides="1, 1" dilations="1, 1" pads_begin="1, 1" pads_end="1, 1" auto_pad="explicit"/>
			<input>
				<port id="0" precision="FP32">
					<dim>1</dim>
					<dim>256</dim>
					<dim>92</dim>
					<dim>92</dim>
				</port>
				<port id="1" precision="FP32">
					<dim>256</dim>
					<dim>256</dim>
					<dim>3</dim>
					<dim>3</dim>
				</port>
			</input>
			<output>
				<port id="2" precision="FP32">
					<dim>1</dim>
					<dim>256</dim>
					<dim>92</dim>
					<dim>92</dim>
				</port>
			</output>
		</layer>
		<layer id="40" name="conv3_4/Dims3322" type="Const" version="opset1">
			<data element_type="f32" shape="1, 256, 1, 1" offset="9301248" size="1024"/>
			<output>
				<port id="0" precision="FP32">
					<dim>1</dim>
					<dim>256</dim>
					<dim>1</dim>
					<dim>1</dim>
				</port>
			</output>
		</layer>
		<layer id="41" name="conv3_4" type="Add" version="opset1">
			<data auto_broadcast="numpy"/>
			<input>
				<port id="0" precision="FP32">
					<dim>1</dim>
					<dim>256</dim>
					<dim>92</dim>
					<dim>92</dim>
				</port>
				<port id="1" precision="FP32">
					<dim>1</dim>
					<dim>256</dim>
					<dim>1</dim>
					<dim>1</dim>
				</port>
			</input>
			<output>
				<port id="2" precision="FP32" names="conv3_4">
					<dim>1</dim>
					<dim>256</dim>
					<dim>92</dim>
					<dim>92</dim>
				</port>
			</output>
		</layer>
		<layer id="42" name="relu3_4" type="ReLU" version="opset1">
			<input>
				<port id="0" precision="FP32">
					<dim>1</dim>
					<dim>256</dim>
					<dim>92</dim>
					<dim>92</dim>
				</port>
			</input>
			<output>
				<port id="1" precision="FP32" names="conv3_4">
					<dim>1</dim>
					<dim>256</dim>
					<dim>92</dim>
					<dim>92</dim>
				</port>
			</output>
		</layer>
		<layer id="43" name="pool3_stage1" type="MaxPool" version="opset1">
			<data strides="2, 2" pads_begin="0, 0" pads_end="0, 0" kernel="2, 2" rounding_type="ceil" auto_pad="explicit"/>
			<input>
				<port id="0" precision="FP32">
					<dim>1</dim>
					<dim>256</dim>
					<dim>92</dim>
					<dim>92</dim>
				</port>
			</input>
			<output>
				<port id="1" precision="FP32" names="pool3_stage1">
					<dim>1</dim>
					<dim>256</dim>
					<dim>46</dim>
					<dim>46</dim>
				</port>
			</output>
		</layer>
		<layer id="44" name="251" type="Const" version="opset1">
			<data element_type="f32" shape="512, 256, 3, 3" offset="9302272" size="4718592"/>
			<output>
				<port id="0" precision="FP32">
					<dim>512</dim>
					<dim>256</dim>
					<dim>3</dim>
					<dim>3</dim>
				</port>
			</output>
		</layer>
		<layer id="45" name="conv4_1/WithoutBiases" type="Convolution" version="opset1">
			<data strides="1, 1" dilations="1, 1" pads_begin="1, 1" pads_end="1, 1" auto_pad="explicit"/>
			<input>
				<port id="0" precision="FP32">
					<dim>1</dim>
					<dim>256</dim>
					<dim>46</dim>
					<dim>46</dim>
				</port>
				<port id="1" precision="FP32">
					<dim>512</dim>
					<dim>256</dim>
					<dim>3</dim>
					<dim>3</dim>
				</port>
			</input>
			<output>
				<port id="2" precision="FP32">
					<dim>1</dim>
					<dim>512</dim>
					<dim>46</dim>
					<dim>46</dim>
				</port>
			</output>
		</layer>
		<layer id="46" name="conv4_1/Dims3160" type="Const" version="opset1">
			<data element_type="f32" shape="1, 512, 1, 1" offset="14020864" size="2048"/>
			<output>
				<port id="0" precision="FP32">
					<dim>1</dim>
					<dim>512</dim>
					<dim>1</dim>
					<dim>1</dim>
				</port>
			</output>
		</layer>
		<layer id="47" name="conv4_1" type="Add" version="opset1">
			<data auto_broadcast="numpy"/>
			<input>
				<port id="0" precision="FP32">
					<dim>1</dim>
					<dim>512</dim>
					<dim>46</dim>
					<dim>46</dim>
				</port>
				<port id="1" precision="FP32">
					<dim>1</dim>
					<dim>512</dim>
					<dim>1</dim>
					<dim>1</dim>
				</port>
			</input>
			<output>
				<port id="2" precision="FP32" names="conv4_1">
					<dim>1</dim>
					<dim>512</dim>
					<dim>46</dim>
					<dim>46</dim>
				</port>
			</output>
		</layer>
		<layer id="48" name="relu4_1" type="ReLU" version="opset1">
			<input>
				<port id="0" precision="FP32">
					<dim>1</dim>
					<dim>512</dim>
					<dim>46</dim>
					<dim>46</dim>
				</port>
			</input>
			<output>
				<port id="1" precision="FP32" names="conv4_1">
					<dim>1</dim>
					<dim>512</dim>
					<dim>46</dim>
					<dim>46</dim>
				</port>
			</output>
		</layer>
		<layer id="49" name="255" type="Const" version="opset1">
			<data element_type="f32" shape="512, 512, 3, 3" offset="14022912" size="9437184"/>
			<output>
				<port id="0" precision="FP32">
					<dim>512</dim>
					<dim>512</dim>
					<dim>3</dim>
					<dim>3</dim>
				</port>
			</output>
		</layer>
		<layer id="50" name="conv4_2/WithoutBiases" type="Convolution" version="opset1">
			<data strides="1, 1" dilations="1, 1" pads_begin="1, 1" pads_end="1, 1" auto_pad="explicit"/>
			<input>
				<port id="0" precision="FP32">
					<dim>1</dim>
					<dim>512</dim>
					<dim>46</dim>
					<dim>46</dim>
				</port>
				<port id="1" precision="FP32">
					<dim>512</dim>
					<dim>512</dim>
					<dim>3</dim>
					<dim>3</dim>
				</port>
			</input>
			<output>
				<port id="2" precision="FP32">
					<dim>1</dim>
					<dim>512</dim>
					<dim>46</dim>
					<dim>46</dim>
				</port>
			</output>
		</layer>
		<layer id="51" name="conv4_2/Dims3508" type="Const" version="opset1">
			<data element_type="f32" shape="1, 512, 1, 1" offset="23460096" size="2048"/>
			<output>
				<port id="0" precision="FP32">
					<dim>1</dim>
					<dim>512</dim>
					<dim>1</dim>
					<dim>1</dim>
				</port>
			</output>
		</layer>
		<layer id="52" name="conv4_2" type="Add" version="opset1">
			<data auto_broadcast="numpy"/>
			<input>
				<port id="0" precision="FP32">
					<dim>1</dim>
					<dim>512</dim>
					<dim>46</dim>
					<dim>46</dim>
				</port>
				<port id="1" precision="FP32">
					<dim>1</dim>
					<dim>512</dim>
					<dim>1</dim>
					<dim>1</dim>
				</port>
			</input>
			<output>
				<port id="2" precision="FP32" names="conv4_2">
					<dim>1</dim>
					<dim>512</dim>
					<dim>46</dim>
					<dim>46</dim>
				</port>
			</output>
		</layer>
		<layer id="53" name="relu4_2" type="ReLU" version="opset1">
			<input>
				<port id="0" precision="FP32">
					<dim>1</dim>
					<dim>512</dim>
					<dim>46</dim>
					<dim>46</dim>
				</port>
			</input>
			<output>
				<port id="1" precision="FP32" names="conv4_2">
					<dim>1</dim>
					<dim>512</dim>
					<dim>46</dim>
					<dim>46</dim>
				</port>
			</output>
		</layer>
		<layer id="54" name="297" type="Const" version="opset1">
			<data element_type="f32" shape="256, 512, 3, 3" offset="23462144" size="4718592"/>
			<output>
				<port id="0" precision="FP32">
					<dim>256</dim>
					<dim>512</dim>
					<dim>3</dim>
					<dim>3</dim>
				</port>
			</output>
		</layer>
		<layer id="55" name="conv4_3_CPM/WithoutBiases" type="Convolution" version="opset1">
			<data strides="1, 1" dilations="1, 1" pads_begin="1, 1" pads_end="1, 1" auto_pad="explicit"/>
			<input>
				<port id="0" precision="FP32">
					<dim>1</dim>
					<dim>512</dim>
					<dim>46</dim>
					<dim>46</dim>
				</port>
				<port id="1" precision="FP32">
					<dim>256</dim>
					<dim>512</dim>
					<dim>3</dim>
					<dim>3</dim>
				</port>
			</input>
			<output>
				<port id="2" precision="FP32">
					<dim>1</dim>
					<dim>256</dim>
					<dim>46</dim>
					<dim>46</dim>
				</port>
			</output>
		</layer>
		<layer id="56" name="conv4_3_CPM/Dims3202" type="Const" version="opset1">
			<data element_type="f32" shape="1, 256, 1, 1" offset="28180736" size="1024"/>
			<output>
				<port id="0" precision="FP32">
					<dim>1</dim>
					<dim>256</dim>
					<dim>1</dim>
					<dim>1</dim>
				</port>
			</output>
		</layer>
		<layer id="57" name="conv4_3_CPM" type="Add" version="opset1">
			<data auto_broadcast="numpy"/>
			<input>
				<port id="0" precision="FP32">
					<dim>1</dim>
					<dim>256</dim>
					<dim>46</dim>
					<dim>46</dim>
				</port>
				<port id="1" precision="FP32">
					<dim>1</dim>
					<dim>256</dim>
					<dim>1</dim>
					<dim>1</dim>
				</port>
			</input>
			<output>
				<port id="2" precision="FP32" names="conv4_3_CPM">
					<dim>1</dim>
					<dim>256</dim>
					<dim>46</dim>
					<dim>46</dim>
				</port>
			</output>
		</layer>
		<layer id="58" name="relu4_3_CPM" type="ReLU" version="opset1">
			<input>
				<port id="0" precision="FP32">
					<dim>1</dim>
					<dim>256</dim>
					<dim>46</dim>
					<dim>46</dim>
				</port>
			</input>
			<output>
				<port id="1" precision="FP32" names="conv4_3_CPM">
					<dim>1</dim>
					<dim>256</dim>
					<dim>46</dim>
					<dim>46</dim>
				</port>
			</output>
		</layer>
		<layer id="59" name="171" type="Const" version="opset1">
			<data element_type="f32" shape="128, 256, 3, 3" offset="28181760" size="1179648"/>
			<output>
				<port id="0" precision="FP32">
					<dim>128</dim>
					<dim>256</dim>
					<dim>3</dim>
					<dim>3</dim>
				</port>
			</output>
		</layer>
		<layer id="60" name="conv4_4_CPM/WithoutBiases" type="Convolution" version="opset1">
			<data strides="1, 1" dilations="1, 1" pads_begin="1, 1" pads_end="1, 1" auto_pad="explicit"/>
			<input>
				<port id="0" precision="FP32">
					<dim>1</dim>
					<dim>256</dim>
					<dim>46</dim>
					<dim>46</dim>
				</port>
				<port id="1" precision="FP32">
					<dim>128</dim>
					<dim>256</dim>
					<dim>3</dim>
					<dim>3</dim>
				</port>
			</input>
			<output>
				<port id="2" precision="FP32">
					<dim>1</dim>
					<dim>128</dim>
					<dim>46</dim>
					<dim>46</dim>
				</port>
			</output>
		</layer>
		<layer id="61" name="conv4_4_CPM/Dims3256" type="Const" version="opset1">
			<data element_type="f32" shape="1, 128, 1, 1" offset="29361408" size="512"/>
			<output>
				<port id="0" precision="FP32">
					<dim>1</dim>
					<dim>128</dim>
					<dim>1</dim>
					<dim>1</dim>
				</port>
			</output>
		</layer>
		<layer id="62" name="conv4_4_CPM" type="Add" version="opset1">
			<data auto_broadcast="numpy"/>
			<input>
				<port id="0" precision="FP32">
					<dim>1</dim>
					<dim>128</dim>
					<dim>46</dim>
					<dim>46</dim>
				</port>
				<port id="1" precision="FP32">
					<dim>1</dim>
					<dim>128</dim>
					<dim>1</dim>
					<dim>1</dim>
				</port>
			</input>
			<output>
				<port id="2" precision="FP32" names="conv4_4_CPM">
					<dim>1</dim>
					<dim>128</dim>
					<dim>46</dim>
					<dim>46</dim>
				</port>
			</output>
		</layer>
		<layer id="63" name="relu4_4_CPM" type="ReLU" version="opset1">
			<input>
				<port id="0" precision="FP32">
					<dim>1</dim>
					<dim>128</dim>
					<dim>46</dim>
					<dim>46</dim>
				</port>
			</input>
			<output>
				<port id="1" precision="FP32" names="conv4_4_CPM">
					<dim>1</dim>
					<dim>128</dim>
					<dim>46</dim>
					<dim>46</dim>
				</port>
			</output>
		</layer>
		<layer id="64" name="243" type="Const" version="opset1">
			<data element_type="f32" shape="128, 128, 3, 3" offset="29361920" size="589824"/>
			<output>
				<port id="0" precision="FP32">
					<dim>128</dim>
					<dim>128</dim>
					<dim>3</dim>
					<dim>3</dim>
				</port>
			</output>
		</layer>
		<layer id="65" name="conv5_1_CPM_L1/WithoutBiases" type="Convolution" version="opset1">
			<data strides="1, 1" dilations="1, 1" pads_begin="1, 1" pads_end="1, 1" auto_pad="explicit"/>
			<input>
				<port id="0" precision="FP32">
					<dim>1</dim>
					<dim>128</dim>
					<dim>46</dim>
					<dim>46</dim>
				</port>
				<port id="1" precision="FP32">
					<dim>128</dim>
					<dim>128</dim>
					<dim>3</dim>
					<dim>3</dim>
				</port>
			</input>
			<output>
				<port id="2" precision="FP32">
					<dim>1</dim>
					<dim>128</dim>
					<dim>46</dim>
					<dim>46</dim>
				</port>
			</output>
		</layer>
		<layer id="66" name="conv5_1_CPM_L1/Dims3316" type="Const" version="opset1">
			<data element_type="f32" shape="1, 128, 1, 1" offset="29951744" size="512"/>
			<output>
				<port id="0" precision="FP32">
					<dim>1</dim>
					<dim>128</dim>
					<dim>1</dim>
					<dim>1</dim>
				</port>
			</output>
		</layer>
		<layer id="67" name="conv5_1_CPM_L1" type="Add" version="opset1">
			<data auto_broadcast="numpy"/>
			<input>
				<port id="0" precision="FP32">
					<dim>1</dim>
					<dim>128</dim>
					<dim>46</dim>
					<dim>46</dim>
				</port>
				<port id="1" precision="FP32">
					<dim>1</dim>
					<dim>128</dim>
					<dim>1</dim>
					<dim>1</dim>
				</port>
			</input>
			<output>
				<port id="2" precision="FP32" names="conv5_1_CPM_L1">
					<dim>1</dim>
					<dim>128</dim>
					<dim>46</dim>
					<dim>46</dim>
				</port>
			</output>
		</layer>
		<layer id="68" name="relu5_1_CPM_L1" type="ReLU" version="opset1">
			<input>
				<port id="0" precision="FP32">
					<dim>1</dim>
					<dim>128</dim>
					<dim>46</dim>
					<dim>46</dim>
				</port>
			</input>
			<output>
				<port id="1" precision="FP32" names="conv5_1_CPM_L1">
					<dim>1</dim>
					<dim>128</dim>
					<dim>46</dim>
					<dim>46</dim>
				</port>
			</output>
		</layer>
		<layer id="69" name="293" type="Const" version="opset1">
			<data element_type="f32" shape="128, 128, 3, 3" offset="29952256" size="589824"/>
			<output>
				<port id="0" precision="FP32">
					<dim>128</dim>
					<dim>128</dim>
					<dim>3</dim>
					<dim>3</dim>
				</port>
			</output>
		</layer>
		<layer id="70" name="conv5_2_CPM_L1/WithoutBiases" type="Convolution" version="opset1">
			<data strides="1, 1" dilations="1, 1" pads_begin="1, 1" pads_end="1, 1" auto_pad="explicit"/>
			<input>
				<port id="0" precision="FP32">
					<dim>1</dim>
					<dim>128</dim>
					<dim>46</dim>
					<dim>46</dim>
				</port>
				<port id="1" precision="FP32">
					<dim>128</dim>
					<dim>128</dim>
					<dim>3</dim>
					<dim>3</dim>
				</port>
			</input>
			<output>
				<port id="2" precision="FP32">
					<dim>1</dim>
					<dim>128</dim>
					<dim>46</dim>
					<dim>46</dim>
				</port>
			</output>
		</layer>
		<layer id="71" name="conv5_2_CPM_L1/Dims3340" type="Const" version="opset1">
			<data element_type="f32" shape="1, 128, 1, 1" offset="30542080" size="512"/>
			<output>
				<port id="0" precision="FP32">
					<dim>1</dim>
					<dim>128</dim>
					<dim>1</dim>
					<dim>1</dim>
				</port>
			</output>
		</layer>
		<layer id="72" name="conv5_2_CPM_L1" type="Add" version="opset1">
			<data auto_broadcast="numpy"/>
			<input>
				<port id="0" precision="FP32">
					<dim>1</dim>
					<dim>128</dim>
					<dim>46</dim>
					<dim>46</dim>
				</port>
				<port id="1" precision="FP32">
					<dim>1</dim>
					<dim>128</dim>
					<dim>1</dim>
					<dim>1</dim>
				</port>
			</input>
			<output>
				<port id="2" precision="FP32" names="conv5_2_CPM_L1">
					<dim>1</dim>
					<dim>128</dim>
					<dim>46</dim>
					<dim>46</dim>
				</port>
			</output>
		</layer>
		<layer id="73" name="relu5_2_CPM_L1" type="ReLU" version="opset1">
			<input>
				<port id="0" precision="FP32">
					<dim>1</dim>
					<dim>128</dim>
					<dim>46</dim>
					<dim>46</dim>
				</port>
			</input>
			<output>
				<port id="1" precision="FP32" names="conv5_2_CPM_L1">
					<dim>1</dim>
					<dim>128</dim>
					<dim>46</dim>
					<dim>46</dim>
				</port>
			</output>
		</layer>
		<layer id="74" name="215" type="Const" version="opset1">
			<data element_type="f32" shape="128, 128, 3, 3" offset="30542592" size="589824"/>
			<output>
				<port id="0" precision="FP32">
					<dim>128</dim>
					<dim>128</dim>
					<dim>3</dim>
					<dim>3</dim>
				</port>
			</output>
		</layer>
		<layer id="75" name="conv5_3_CPM_L1/WithoutBiases" type="Convolution" version="opset1">
			<data strides="1, 1" dilations="1, 1" pads_begin="1, 1" pads_end="1, 1" auto_pad="explicit"/>
			<input>
				<port id="0" precision="FP32">
					<dim>1</dim>
					<dim>128</dim>
					<dim>46</dim>
					<dim>46</dim>
				</port>
				<port id="1" precision="FP32">
					<dim>128</dim>
					<dim>128</dim>
					<dim>3</dim>
					<dim>3</dim>
				</port>
			</input>
			<output>
				<port id="2" precision="FP32">
					<dim>1</dim>
					<dim>128</dim>
					<dim>46</dim>
					<dim>46</dim>
				</port>
			</output>
		</layer>
		<layer id="76" name="conv5_3_CPM_L1/Dims3130" type="Const" version="opset1">
			<data element_type="f32" shape="1, 128, 1, 1" offset="31132416" size="512"/>
			<output>
				<port id="0" precision="FP32">
					<dim>1</dim>
					<dim>128</dim>
					<dim>1</dim>
					<dim>1</dim>
				</port>
			</output>
		</layer>
		<layer id="77" name="conv5_3_CPM_L1" type="Add" version="opset1">
			<data auto_broadcast="numpy"/>
			<input>
				<port id="0" precision="FP32">
					<dim>1</dim>
					<dim>128</dim>
					<dim>46</dim>
					<dim>46</dim>
				</port>
				<port id="1" precision="FP32">
					<dim>1</dim>
					<dim>128</dim>
					<dim>1</dim>
					<dim>1</dim>
				</port>
			</input>
			<output>
				<port id="2" precision="FP32" names="conv5_3_CPM_L1">
					<dim>1</dim>
					<dim>128</dim>
					<dim>46</dim>
					<dim>46</dim>
				</port>
			</output>
		</layer>
		<layer id="78" name="relu5_3_CPM_L1" type="ReLU" version="opset1">
			<input>
				<port id="0" precision="FP32">
					<dim>1</dim>
					<dim>128</dim>
					<dim>46</dim>
					<dim>46</dim>
				</port>
			</input>
			<output>
				<port id="1" precision="FP32" names="conv5_3_CPM_L1">
					<dim>1</dim>
					<dim>128</dim>
					<dim>46</dim>
					<dim>46</dim>
				</port>
			</output>
		</layer>
		<layer id="79" name="329" type="Const" version="opset1">
			<data element_type="f32" shape="512, 128, 1, 1" offset="31132928" size="262144"/>
			<output>
				<port id="0" precision="FP32">
					<dim>512</dim>
					<dim>128</dim>
					<dim>1</dim>
					<dim>1</dim>
				</port>
			</output>
		</layer>
		<layer id="80" name="conv5_4_CPM_L1/WithoutBiases" type="Convolution" version="opset1">
			<data strides="1, 1" dilations="1, 1" pads_begin="0, 0" pads_end="0, 0" auto_pad="explicit"/>
			<input>
				<port id="0" precision="FP32">
					<dim>1</dim>
					<dim>128</dim>
					<dim>46</dim>
					<dim>46</dim>
				</port>
				<port id="1" precision="FP32">
					<dim>512</dim>
					<dim>128</dim>
					<dim>1</dim>
					<dim>1</dim>
				</port>
			</input>
			<output>
				<port id="2" precision="FP32">
					<dim>1</dim>
					<dim>512</dim>
					<dim>46</dim>
					<dim>46</dim>
				</port>
			</output>
		</layer>
		<layer id="81" name="conv5_4_CPM_L1/Dims3244" type="Const" version="opset1">
			<data element_type="f32" shape="1, 512, 1, 1" offset="31395072" size="2048"/>
			<output>
				<port id="0" precision="FP32">
					<dim>1</dim>
					<dim>512</dim>
					<dim>1</dim>
					<dim>1</dim>
				</port>
			</output>
		</layer>
		<layer id="82" name="conv5_4_CPM_L1" type="Add" version="opset1">
			<data auto_broadcast="numpy"/>
			<input>
				<port id="0" precision="FP32">
					<dim>1</dim>
					<dim>512</dim>
					<dim>46</dim>
					<dim>46</dim>
				</port>
				<port id="1" precision="FP32">
					<dim>1</dim>
					<dim>512</dim>
					<dim>1</dim>
					<dim>1</dim>
				</port>
			</input>
			<output>
				<port id="2" precision="FP32" names="conv5_4_CPM_L1">
					<dim>1</dim>
					<dim>512</dim>
					<dim>46</dim>
					<dim>46</dim>
				</port>
			</output>
		</layer>
		<layer id="83" name="relu5_4_CPM_L1" type="ReLU" version="opset1">
			<input>
				<port id="0" precision="FP32">
					<dim>1</dim>
					<dim>512</dim>
					<dim>46</dim>
					<dim>46</dim>
				</port>
			</input>
			<output>
				<port id="1" precision="FP32" names="conv5_4_CPM_L1">
					<dim>1</dim>
					<dim>512</dim>
					<dim>46</dim>
					<dim>46</dim>
				</port>
			</output>
		</layer>
		<layer id="84" name="289" type="Const" version="opset1">
			<data element_type="f32" shape="38, 512, 1, 1" offset="31397120" size="77824"/>
			<output>
				<port id="0" precision="FP32">
					<dim>38</dim>
					<dim>512</dim>
					<dim>1</dim>
					<dim>1</dim>
				</port>
			</output>
		</layer>
		<layer id="85" name="conv5_5_CPM_L1/WithoutBiases" type="Convolution" version="opset1">
			<data strides="1, 1" dilations="1, 1" pads_begin="0, 0" pads_end="0, 0" auto_pad="explicit"/>
			<input>
				<port id="0" precision="FP32">
					<dim>1</dim>
					<dim>512</dim>
					<dim>46</dim>
					<dim>46</dim>
				</port>
				<port id="1" precision="FP32">
					<dim>38</dim>
					<dim>512</dim>
					<dim>1</dim>
					<dim>1</dim>
				</port>
			</input>
			<output>
				<port id="2" precision="FP32">
					<dim>1</dim>
					<dim>38</dim>
					<dim>46</dim>
					<dim>46</dim>
				</port>
			</output>
		</layer>
		<layer id="86" name="conv5_5_CPM_L1/Dims3190" type="Const" version="opset1">
			<data element_type="f32" shape="1, 38, 1, 1" offset="31474944" size="152"/>
			<output>
				<port id="0" precision="FP32">
					<dim>1</dim>
					<dim>38</dim>
					<dim>1</dim>
					<dim>1</dim>
				</port>
			</output>
		</layer>
		<layer id="87" name="conv5_5_CPM_L1" type="Add" version="opset1">
			<data auto_broadcast="numpy"/>
			<input>
				<port id="0" precision="FP32">
					<dim>1</dim>
					<dim>38</dim>
					<dim>46</dim>
					<dim>46</dim>
				</port>
				<port id="1" precision="FP32">
					<dim>1</dim>
					<dim>38</dim>
					<dim>1</dim>
					<dim>1</dim>
				</port>
			</input>
			<output>
				<port id="2" precision="FP32" names="conv5_5_CPM_L1">
					<dim>1</dim>
					<dim>38</dim>
					<dim>46</dim>
					<dim>46</dim>
				</port>
			</output>
		</layer>
		<layer id="88" name="187" type="Const" version="opset1">
			<data element_type="f32" shape="128, 128, 3, 3" offset="31475096" size="589824"/>
			<output>
				<port id="0" precision="FP32">
					<dim>128</dim>
					<dim>128</dim>
					<dim>3</dim>
					<dim>3</dim>
				</port>
			</output>
		</layer>
		<layer id="89" name="conv5_1_CPM_L2/WithoutBiases" type="Convolution" version="opset1">
			<data strides="1, 1" dilations="1, 1" pads_begin="1, 1" pads_end="1, 1" auto_pad="explicit"/>
			<input>
				<port id="0" precision="FP32">
					<dim>1</dim>
					<dim>128</dim>
					<dim>46</dim>
					<dim>46</dim>
				</port>
				<port id="1" precision="FP32">
					<dim>128</dim>
					<dim>128</dim>
					<dim>3</dim>
					<dim>3</dim>
				</port>
			</input>
			<output>
				<port id="2" precision="FP32">
					<dim>1</dim>
					<dim>128</dim>
					<dim>46</dim>
					<dim>46</dim>
				</port>
			</output>
		</layer>
		<layer id="90" name="conv5_1_CPM_L2/Dims3076" type="Const" version="opset1">
			<data element_type="f32" shape="1, 128, 1, 1" offset="32064920" size="512"/>
			<output>
				<port id="0" precision="FP32">
					<dim>1</dim>
					<dim>128</dim>
					<dim>1</dim>
					<dim>1</dim>
				</port>
			</output>
		</layer>
		<layer id="91" name="conv5_1_CPM_L2" type="Add" version="opset1">
			<data auto_broadcast="numpy"/>
			<input>
				<port id="0" precision="FP32">
					<dim>1</dim>
					<dim>128</dim>
					<dim>46</dim>
					<dim>46</dim>
				</port>
				<port id="1" precision="FP32">
					<dim>1</dim>
					<dim>128</dim>
					<dim>1</dim>
					<dim>1</dim>
				</port>
			</input>
			<output>
				<port id="2" precision="FP32" names="conv5_1_CPM_L2">
					<dim>1</dim>
					<dim>128</dim>
					<dim>46</dim>
					<dim>46</dim>
				</port>
			</output>
		</layer>
		<layer id="92" name="relu5_1_CPM_L2" type="ReLU" version="opset1">
			<input>
				<port id="0" precision="FP32">
					<dim>1</dim>
					<dim>128</dim>
					<dim>46</dim>
					<dim>46</dim>
				</port>
			</input>
			<output>
				<port id="1" precision="FP32" names="conv5_1_CPM_L2">
					<dim>1</dim>
					<dim>128</dim>
					<dim>46</dim>
					<dim>46</dim>
				</port>
			</output>
		</layer>
		<layer id="93" name="267" type="Const" version="opset1">
			<data element_type="f32" shape="128, 128, 3, 3" offset="32065432" size="589824"/>
			<output>
				<port id="0" precision="FP32">
					<dim>128</dim>
					<dim>128</dim>
					<dim>3</dim>
					<dim>3</dim>
				</port>
			</output>
		</layer>
		<layer id="94" name="conv5_2_CPM_L2/WithoutBiases" type="Convolution" version="opset1">
			<data strides="1, 1" dilations="1, 1" pads_begin="1, 1" pads_end="1, 1" auto_pad="explicit"/>
			<input>
				<port id="0" precision="FP32">
					<dim>1</dim>
					<dim>128</dim>
					<dim>46</dim>
					<dim>46</dim>
				</port>
				<port id="1" precision="FP32">
					<dim>128</dim>
					<dim>128</dim>
					<dim>3</dim>
					<dim>3</dim>
				</port>
			</input>
			<output>
				<port id="2" precision="FP32">
					<dim>1</dim>
					<dim>128</dim>
					<dim>46</dim>
					<dim>46</dim>
				</port>
			</output>
		</layer>
		<layer id="95" name="conv5_2_CPM_L2/Dims3526" type="Const" version="opset1">
			<data element_type="f32" shape="1, 128, 1, 1" offset="32655256" size="512"/>
			<output>
				<port id="0" precision="FP32">
					<dim>1</dim>
					<dim>128</dim>
					<dim>1</dim>
					<dim>1</dim>
				</port>
			</output>
		</layer>
		<layer id="96" name="conv5_2_CPM_L2" type="Add" version="opset1">
			<data auto_broadcast="numpy"/>
			<input>
				<port id="0" precision="FP32">
					<dim>1</dim>
					<dim>128</dim>
					<dim>46</dim>
					<dim>46</dim>
				</port>
				<port id="1" precision="FP32">
					<dim>1</dim>
					<dim>128</dim>
					<dim>1</dim>
					<dim>1</dim>
				</port>
			</input>
			<output>
				<port id="2" precision="FP32" names="conv5_2_CPM_L2">
					<dim>1</dim>
					<dim>128</dim>
					<dim>46</dim>
					<dim>46</dim>
				</port>
			</output>
		</layer>
		<layer id="97" name="relu5_2_CPM_L2" type="ReLU" version="opset1">
			<input>
				<port id="0" precision="FP32">
					<dim>1</dim>
					<dim>128</dim>
					<dim>46</dim>
					<dim>46</dim>
				</port>
			</input>
			<output>
				<port id="1" precision="FP32" names="conv5_2_CPM_L2">
					<dim>1</dim>
					<dim>128</dim>
					<dim>46</dim>
					<dim>46</dim>
				</port>
			</output>
		</layer>
		<layer id="98" name="245" type="Const" version="opset1">
			<data element_type="f32" shape="128, 128, 3, 3" offset="32655768" size="589824"/>
			<output>
				<port id="0" precision="FP32">
					<dim>128</dim>
					<dim>128</dim>
					<dim>3</dim>
					<dim>3</dim>
				</port>
			</output>
		</layer>
		<layer id="99" name="conv5_3_CPM_L2/WithoutBiases" type="Convolution" version="opset1">
			<data strides="1, 1" dilations="1, 1" pads_begin="1, 1" pads_end="1, 1" auto_pad="explicit"/>
			<input>
				<port id="0" precision="FP32">
					<dim>1</dim>
					<dim>128</dim>
					<dim>46</dim>
					<dim>46</dim>
				</port>
				<port id="1" precision="FP32">
					<dim>128</dim>
					<dim>128</dim>
					<dim>3</dim>
					<dim>3</dim>
				</port>
			</input>
			<output>
				<port id="2" precision="FP32">
					<dim>1</dim>
					<dim>128</dim>
					<dim>46</dim>
					<dim>46</dim>
				</port>
			</output>
		</layer>
		<layer id="100" name="conv5_3_CPM_L2/Dims3154" type="Const" version="opset1">
			<data element_type="f32" shape="1, 128, 1, 1" offset="33245592" size="512"/>
			<output>
				<port id="0" precision="FP32">
					<dim>1</dim>
					<dim>128</dim>
					<dim>1</dim>
					<dim>1</dim>
				</port>
			</output>
		</layer>
		<layer id="101" name="conv5_3_CPM_L2" type="Add" version="opset1">
			<data auto_broadcast="numpy"/>
			<input>
				<port id="0" precision="FP32">
					<dim>1</dim>
					<dim>128</dim>
					<dim>46</dim>
					<dim>46</dim>
				</port>
				<port id="1" precision="FP32">
					<dim>1</dim>
					<dim>128</dim>
					<dim>1</dim>
					<dim>1</dim>
				</port>
			</input>
			<output>
				<port id="2" precision="FP32" names="conv5_3_CPM_L2">
					<dim>1</dim>
					<dim>128</dim>
					<dim>46</dim>
					<dim>46</dim>
				</port>
			</output>
		</layer>
		<layer id="102" name="relu5_3_CPM_L2" type="ReLU" version="opset1">
			<input>
				<port id="0" precision="FP32">
					<dim>1</dim>
					<dim>128</dim>
					<dim>46</dim>
					<dim>46</dim>
				</port>
			</input>
			<output>
				<port id="1" precision="FP32" names="conv5_3_CPM_L2">
					<dim>1</dim>
					<dim>128</dim>
					<dim>46</dim>
					<dim>46</dim>
				</port>
			</output>
		</layer>
		<layer id="103" name="189" type="Const" version="opset1">
			<data element_type="f32" shape="512, 128, 1, 1" offset="33246104" size="262144"/>
			<output>
				<port id="0" precision="FP32">
					<dim>512</dim>
					<dim>128</dim>
					<dim>1</dim>
					<dim>1</dim>
				</port>
			</output>
		</layer>
		<layer id="104" name="conv5_4_CPM_L2/WithoutBiases" type="Convolution" version="opset1">
			<data strides="1, 1" dilations="1, 1" pads_begin="0, 0" pads_end="0, 0" auto_pad="explicit"/>
			<input>
				<port id="0" precision="FP32">
					<dim>1</dim>
					<dim>128</dim>
					<dim>46</dim>
					<dim>46</dim>
				</port>
				<port id="1" precision="FP32">
					<dim>512</dim>
					<dim>128</dim>
					<dim>1</dim>
					<dim>1</dim>
				</port>
			</input>
			<output>
				<port id="2" precision="FP32">
					<dim>1</dim>
					<dim>512</dim>
					<dim>46</dim>
					<dim>46</dim>
				</port>
			</output>
		</layer>
		<layer id="105" name="conv5_4_CPM_L2/Dims3268" type="Const" version="opset1">
			<data element_type="f32" shape="1, 512, 1, 1" offset="33508248" size="2048"/>
			<output>
				<port id="0" precision="FP32">
					<dim>1</dim>
					<dim>512</dim>
					<dim>1</dim>
					<dim>1</dim>
				</port>
			</output>
		</layer>
		<layer id="106" name="conv5_4_CPM_L2" type="Add" version="opset1">
			<data auto_broadcast="numpy"/>
			<input>
				<port id="0" precision="FP32">
					<dim>1</dim>
					<dim>512</dim>
					<dim>46</dim>
					<dim>46</dim>
				</port>
				<port id="1" precision="FP32">
					<dim>1</dim>
					<dim>512</dim>
					<dim>1</dim>
					<dim>1</dim>
				</port>
			</input>
			<output>
				<port id="2" precision="FP32" names="conv5_4_CPM_L2">
					<dim>1</dim>
					<dim>512</dim>
					<dim>46</dim>
					<dim>46</dim>
				</port>
			</output>
		</layer>
		<layer id="107" name="relu5_4_CPM_L2" type="ReLU" version="opset1">
			<input>
				<port id="0" precision="FP32">
					<dim>1</dim>
					<dim>512</dim>
					<dim>46</dim>
					<dim>46</dim>
				</port>
			</input>
			<output>
				<port id="1" precision="FP32" names="conv5_4_CPM_L2">
					<dim>1</dim>
					<dim>512</dim>
					<dim>46</dim>
					<dim>46</dim>
				</port>
			</output>
		</layer>
		<layer id="108" name="275" type="Const" version="opset1">
			<data element_type="f32" shape="19, 512, 1, 1" offset="33510296" size="38912"/>
			<output>
				<port id="0" precision="FP32">
					<dim>19</dim>
					<dim>512</dim>
					<dim>1</dim>
					<dim>1</dim>
				</port>
			</output>
		</layer>
		<layer id="109" name="conv5_5_CPM_L2/WithoutBiases" type="Convolution" version="opset1">
			<data strides="1, 1" dilations="1, 1" pads_begin="0, 0" pads_end="0, 0" auto_pad="explicit"/>
			<input>
				<port id="0" precision="FP32">
					<dim>1</dim>
					<dim>512</dim>
					<dim>46</dim>
					<dim>46</dim>
				</port>
				<port id="1" precision="FP32">
					<dim>19</dim>
					<dim>512</dim>
					<dim>1</dim>
					<dim>1</dim>
				</port>
			</input>
			<output>
				<port id="2" precision="FP32">
					<dim>1</dim>
					<dim>19</dim>
					<dim>46</dim>
					<dim>46</dim>
				</port>
			</output>
		</layer>
		<layer id="110" name="conv5_5_CPM_L2/Dims3328" type="Const" version="opset1">
			<data element_type="f32" shape="1, 19, 1, 1" offset="33549208" size="76"/>
			<output>
				<port id="0" precision="FP32">
					<dim>1</dim>
					<dim>19</dim>
					<dim>1</dim>
					<dim>1</dim>
				</port>
			</output>
		</layer>
		<layer id="111" name="conv5_5_CPM_L2" type="Add" version="opset1">
			<data auto_broadcast="numpy"/>
			<input>
				<port id="0" precision="FP32">
					<dim>1</dim>
					<dim>19</dim>
					<dim>46</dim>
					<dim>46</dim>
				</port>
				<port id="1" precision="FP32">
					<dim>1</dim>
					<dim>19</dim>
					<dim>1</dim>
					<dim>1</dim>
				</port>
			</input>
			<output>
				<port id="2" precision="FP32" names="conv5_5_CPM_L2">
					<dim>1</dim>
					<dim>19</dim>
					<dim>46</dim>
					<dim>46</dim>
				</port>
			</output>
		</layer>
		<layer id="112" name="concat_stage2" type="Concat" version="opset1">
			<data axis="1"/>
			<input>
				<port id="0" precision="FP32">
					<dim>1</dim>
					<dim>38</dim>
					<dim>46</dim>
					<dim>46</dim>
				</port>
				<port id="1" precision="FP32">
					<dim>1</dim>
					<dim>19</dim>
					<dim>46</dim>
					<dim>46</dim>
				</port>
				<port id="2" precision="FP32">
					<dim>1</dim>
					<dim>128</dim>
					<dim>46</dim>
					<dim>46</dim>
				</port>
			</input>
			<output>
				<port id="3" precision="FP32" names="concat_stage2">
					<dim>1</dim>
					<dim>185</dim>
					<dim>46</dim>
					<dim>46</dim>
				</port>
			</output>
		</layer>
		<layer id="113" name="305" type="Const" version="opset1">
			<data element_type="f32" shape="128, 185, 7, 7" offset="33549284" size="4641280"/>
			<output>
				<port id="0" precision="FP32">
					<dim>128</dim>
					<dim>185</dim>
					<dim>7</dim>
					<dim>7</dim>
				</port>
			</output>
		</layer>
		<layer id="114" name="Mconv1_stage2_L1/WithoutBiases" type="Convolution" version="opset1">
			<data strides="1, 1" dilations="1, 1" pads_begin="3, 3" pads_end="3, 3" auto_pad="explicit"/>
			<input>
				<port id="0" precision="FP32">
					<dim>1</dim>
					<dim>185</dim>
					<dim>46</dim>
					<dim>46</dim>
				</port>
				<port id="1" precision="FP32">
					<dim>128</dim>
					<dim>185</dim>
					<dim>7</dim>
					<dim>7</dim>
				</port>
			</input>
			<output>
				<port id="2" precision="FP32">
					<dim>1</dim>
					<dim>128</dim>
					<dim>46</dim>
					<dim>46</dim>
				</port>
			</output>
		</layer>
		<layer id="115" name="Mconv1_stage2_L1/Dims3214" type="Const" version="opset1">
			<data element_type="f32" shape="1, 128, 1, 1" offset="38190564" size="512"/>
			<output>
				<port id="0" precision="FP32">
					<dim>1</dim>
					<dim>128</dim>
					<dim>1</dim>
					<dim>1</dim>
				</port>
			</output>
		</layer>
		<layer id="116" name="Mconv1_stage2_L1" type="Add" version="opset1">
			<data auto_broadcast="numpy"/>
			<input>
				<port id="0" precision="FP32">
					<dim>1</dim>
					<dim>128</dim>
					<dim>46</dim>
					<dim>46</dim>
				</port>
				<port id="1" precision="FP32">
					<dim>1</dim>
					<dim>128</dim>
					<dim>1</dim>
					<dim>1</dim>
				</port>
			</input>
			<output>
				<port id="2" precision="FP32" names="Mconv1_stage2_L1">
					<dim>1</dim>
					<dim>128</dim>
					<dim>46</dim>
					<dim>46</dim>
				</port>
			</output>
		</layer>
		<layer id="117" name="Mrelu1_stage2_L1" type="ReLU" version="opset1">
			<input>
				<port id="0" precision="FP32">
					<dim>1</dim>
					<dim>128</dim>
					<dim>46</dim>
					<dim>46</dim>
				</port>
			</input>
			<output>
				<port id="1" precision="FP32" names="Mconv1_stage2_L1">
					<dim>1</dim>
					<dim>128</dim>
					<dim>46</dim>
					<dim>46</dim>
				</port>
			</output>
		</layer>
		<layer id="118" name="285" type="Const" version="opset1">
			<data element_type="f32" shape="128, 128, 7, 7" offset="38191076" size="3211264"/>
			<output>
				<port id="0" precision="FP32">
					<dim>128</dim>
					<dim>128</dim>
					<dim>7</dim>
					<dim>7</dim>
				</port>
			</output>
		</layer>
		<layer id="119" name="Mconv2_stage2_L1/WithoutBiases" type="Convolution" version="opset1">
			<data strides="1, 1" dilations="1, 1" pads_begin="3, 3" pads_end="3, 3" auto_pad="explicit"/>
			<input>
				<port id="0" precision="FP32">
					<dim>1</dim>
					<dim>128</dim>
					<dim>46</dim>
					<dim>46</dim>
				</port>
				<port id="1" precision="FP32">
					<dim>128</dim>
					<dim>128</dim>
					<dim>7</dim>
					<dim>7</dim>
				</port>
			</input>
			<output>
				<port id="2" precision="FP32">
					<dim>1</dim>
					<dim>128</dim>
					<dim>46</dim>
					<dim>46</dim>
				</port>
			</output>
		</layer>
		<layer id="120" name="Mconv2_stage2_L1/Dims3448" type="Const" version="opset1">
			<data element_type="f32" shape="1, 128, 1, 1" offset="41402340" size="512"/>
			<output>
				<port id="0" precision="FP32">
					<dim>1</dim>
					<dim>128</dim>
					<dim>1</dim>
					<dim>1</dim>
				</port>
			</output>
		</layer>
		<layer id="121" name="Mconv2_stage2_L1" type="Add" version="opset1">
			<data auto_broadcast="numpy"/>
			<input>
				<port id="0" precision="FP32">
					<dim>1</dim>
					<dim>128</dim>
					<dim>46</dim>
					<dim>46</dim>
				</port>
				<port id="1" precision="FP32">
					<dim>1</dim>
					<dim>128</dim>
					<dim>1</dim>
					<dim>1</dim>
				</port>
			</input>
			<output>
				<port id="2" precision="FP32" names="Mconv2_stage2_L1">
					<dim>1</dim>
					<dim>128</dim>
					<dim>46</dim>
					<dim>46</dim>
				</port>
			</output>
		</layer>
		<layer id="122" name="Mrelu2_stage2_L1" type="ReLU" version="opset1">
			<input>
				<port id="0" precision="FP32">
					<dim>1</dim>
					<dim>128</dim>
					<dim>46</dim>
					<dim>46</dim>
				</port>
			</input>
			<output>
				<port id="1" precision="FP32" names="Mconv2_stage2_L1">
					<dim>1</dim>
					<dim>128</dim>
					<dim>46</dim>
					<dim>46</dim>
				</port>
			</output>
		</layer>
		<layer id="123" name="333" type="Const" version="opset1">
			<data element_type="f32" shape="128, 128, 7, 7" offset="41402852" size="3211264"/>
			<output>
				<port id="0" precision="FP32">
					<dim>128</dim>
					<dim>128</dim>
					<dim>7</dim>
					<dim>7</dim>
				</port>
			</output>
		</layer>
		<layer id="124" name="Mconv3_stage2_L1/WithoutBiases" type="Convolution" version="opset1">
			<data strides="1, 1" dilations="1, 1" pads_begin="3, 3" pads_end="3, 3" auto_pad="explicit"/>
			<input>
				<port id="0" precision="FP32">
					<dim>1</dim>
					<dim>128</dim>
					<dim>46</dim>
					<dim>46</dim>
				</port>
				<port id="1" precision="FP32">
					<dim>128</dim>
					<dim>128</dim>
					<dim>7</dim>
					<dim>7</dim>
				</port>
			</input>
			<output>
				<port id="2" precision="FP32">
					<dim>1</dim>
					<dim>128</dim>
					<dim>46</dim>
					<dim>46</dim>
				</port>
			</output>
		</layer>
		<layer id="125" name="Mconv3_stage2_L1/Dims3376" type="Const" version="opset1">
			<data element_type="f32" shape="1, 128, 1, 1" offset="44614116" size="512"/>
			<output>
				<port id="0" precision="FP32">
					<dim>1</dim>
					<dim>128</dim>
					<dim>1</dim>
					<dim>1</dim>
				</port>
			</output>
		</layer>
		<layer id="126" name="Mconv3_stage2_L1" type="Add" version="opset1">
			<data auto_broadcast="numpy"/>
			<input>
				<port id="0" precision="FP32">
					<dim>1</dim>
					<dim>128</dim>
					<dim>46</dim>
					<dim>46</dim>
				</port>
				<port id="1" precision="FP32">
					<dim>1</dim>
					<dim>128</dim>
					<dim>1</dim>
					<dim>1</dim>
				</port>
			</input>
			<output>
				<port id="2" precision="FP32" names="Mconv3_stage2_L1">
					<dim>1</dim>
					<dim>128</dim>
					<dim>46</dim>
					<dim>46</dim>
				</port>
			</output>
		</layer>
		<layer id="127" name="Mrelu3_stage2_L1" type="ReLU" version="opset1">
			<input>
				<port id="0" precision="FP32">
					<dim>1</dim>
					<dim>128</dim>
					<dim>46</dim>
					<dim>46</dim>
				</port>
			</input>
			<output>
				<port id="1" precision="FP32" names="Mconv3_stage2_L1">
					<dim>1</dim>
					<dim>128</dim>
					<dim>46</dim>
					<dim>46</dim>
				</port>
			</output>
		</layer>
		<layer id="128" name="183" type="Const" version="opset1">
			<data element_type="f32" shape="128, 128, 7, 7" offset="44614628" size="3211264"/>
			<output>
				<port id="0" precision="FP32">
					<dim>128</dim>
					<dim>128</dim>
					<dim>7</dim>
					<dim>7</dim>
				</port>
			</output>
		</layer>
		<layer id="129" name="Mconv4_stage2_L1/WithoutBiases" type="Convolution" version="opset1">
			<data strides="1, 1" dilations="1, 1" pads_begin="3, 3" pads_end="3, 3" auto_pad="explicit"/>
			<input>
				<port id="0" precision="FP32">
					<dim>1</dim>
					<dim>128</dim>
					<dim>46</dim>
					<dim>46</dim>
				</port>
				<port id="1" precision="FP32">
					<dim>128</dim>
					<dim>128</dim>
					<dim>7</dim>
					<dim>7</dim>
				</port>
			</input>
			<output>
				<port id="2" precision="FP32">
					<dim>1</dim>
					<dim>128</dim>
					<dim>46</dim>
					<dim>46</dim>
				</port>
			</output>
		</layer>
		<layer id="130" name="Mconv4_stage2_L1/Dims3484" type="Const" version="opset1">
			<data element_type="f32" shape="1, 128, 1, 1" offset="47825892" size="512"/>
			<output>
				<port id="0" precision="FP32">
					<dim>1</dim>
					<dim>128</dim>
					<dim>1</dim>
					<dim>1</dim>
				</port>
			</output>
		</layer>
		<layer id="131" name="Mconv4_stage2_L1" type="Add" version="opset1">
			<data auto_broadcast="numpy"/>
			<input>
				<port id="0" precision="FP32">
					<dim>1</dim>
					<dim>128</dim>
					<dim>46</dim>
					<dim>46</dim>
				</port>
				<port id="1" precision="FP32">
					<dim>1</dim>
					<dim>128</dim>
					<dim>1</dim>
					<dim>1</dim>
				</port>
			</input>
			<output>
				<port id="2" precision="FP32" names="Mconv4_stage2_L1">
					<dim>1</dim>
					<dim>128</dim>
					<dim>46</dim>
					<dim>46</dim>
				</port>
			</output>
		</layer>
		<layer id="132" name="Mrelu4_stage2_L1" type="ReLU" version="opset1">
			<input>
				<port id="0" precision="FP32">
					<dim>1</dim>
					<dim>128</dim>
					<dim>46</dim>
					<dim>46</dim>
				</port>
			</input>
			<output>
				<port id="1" precision="FP32" names="Mconv4_stage2_L1">
					<dim>1</dim>
					<dim>128</dim>
					<dim>46</dim>
					<dim>46</dim>
				</port>
			</output>
		</layer>
		<layer id="133" name="227" type="Const" version="opset1">
			<data element_type="f32" shape="128, 128, 7, 7" offset="47826404" size="3211264"/>
			<output>
				<port id="0" precision="FP32">
					<dim>128</dim>
					<dim>128</dim>
					<dim>7</dim>
					<dim>7</dim>
				</port>
			</output>
		</layer>
		<layer id="134" name="Mconv5_stage2_L1/WithoutBiases" type="Convolution" version="opset1">
			<data strides="1, 1" dilations="1, 1" pads_begin="3, 3" pads_end="3, 3" auto_pad="explicit"/>
			<input>
				<port id="0" precision="FP32">
					<dim>1</dim>
					<dim>128</dim>
					<dim>46</dim>
					<dim>46</dim>
				</port>
				<port id="1" precision="FP32">
					<dim>128</dim>
					<dim>128</dim>
					<dim>7</dim>
					<dim>7</dim>
				</port>
			</input>
			<output>
				<port id="2" precision="FP32">
					<dim>1</dim>
					<dim>128</dim>
					<dim>46</dim>
					<dim>46</dim>
				</port>
			</output>
		</layer>
		<layer id="135" name="Mconv5_stage2_L1/Dims3292" type="Const" version="opset1">
			<data element_type="f32" shape="1, 128, 1, 1" offset="51037668" size="512"/>
			<output>
				<port id="0" precision="FP32">
					<dim>1</dim>
					<dim>128</dim>
					<dim>1</dim>
					<dim>1</dim>
				</port>
			</output>
		</layer>
		<layer id="136" name="Mconv5_stage2_L1" type="Add" version="opset1">
			<data auto_broadcast="numpy"/>
			<input>
				<port id="0" precision="FP32">
					<dim>1</dim>
					<dim>128</dim>
					<dim>46</dim>
					<dim>46</dim>
				</port>
				<port id="1" precision="FP32">
					<dim>1</dim>
					<dim>128</dim>
					<dim>1</dim>
					<dim>1</dim>
				</port>
			</input>
			<output>
				<port id="2" precision="FP32" names="Mconv5_stage2_L1">
					<dim>1</dim>
					<dim>128</dim>
					<dim>46</dim>
					<dim>46</dim>
				</port>
			</output>
		</layer>
		<layer id="137" name="Mrelu5_stage2_L1" type="ReLU" version="opset1">
			<input>
				<port id="0" precision="FP32">
					<dim>1</dim>
					<dim>128</dim>
					<dim>46</dim>
					<dim>46</dim>
				</port>
			</input>
			<output>
				<port id="1" precision="FP32" names="Mconv5_stage2_L1">
					<dim>1</dim>
					<dim>128</dim>
					<dim>46</dim>
					<dim>46</dim>
				</port>
			</output>
		</layer>
		<layer id="138" name="241" type="Const" version="opset1">
			<data element_type="f32" shape="128, 128, 1, 1" offset="51038180" size="65536"/>
			<output>
				<port id="0" precision="FP32">
					<dim>128</dim>
					<dim>128</dim>
					<dim>1</dim>
					<dim>1</dim>
				</port>
			</output>
		</layer>
		<layer id="139" name="Mconv6_stage2_L1/WithoutBiases" type="Convolution" version="opset1">
			<data strides="1, 1" dilations="1, 1" pads_begin="0, 0" pads_end="0, 0" auto_pad="explicit"/>
			<input>
				<port id="0" precision="FP32">
					<dim>1</dim>
					<dim>128</dim>
					<dim>46</dim>
					<dim>46</dim>
				</port>
				<port id="1" precision="FP32">
					<dim>128</dim>
					<dim>128</dim>
					<dim>1</dim>
					<dim>1</dim>
				</port>
			</input>
			<output>
				<port id="2" precision="FP32">
					<dim>1</dim>
					<dim>128</dim>
					<dim>46</dim>
					<dim>46</dim>
				</port>
			</output>
		</layer>
		<layer id="140" name="Mconv6_stage2_L1/Dims3310" type="Const" version="opset1">
			<data element_type="f32" shape="1, 128, 1, 1" offset="51103716" size="512"/>
			<output>
				<port id="0" precision="FP32">
					<dim>1</dim>
					<dim>128</dim>
					<dim>1</dim>
					<dim>1</dim>
				</port>
			</output>
		</layer>
		<layer id="141" name="Mconv6_stage2_L1" type="Add" version="opset1">
			<data auto_broadcast="numpy"/>
			<input>
				<port id="0" precision="FP32">
					<dim>1</dim>
					<dim>128</dim>
					<dim>46</dim>
					<dim>46</dim>
				</port>
				<port id="1" precision="FP32">
					<dim>1</dim>
					<dim>128</dim>
					<dim>1</dim>
					<dim>1</dim>
				</port>
			</input>
			<output>
				<port id="2" precision="FP32" names="Mconv6_stage2_L1">
					<dim>1</dim>
					<dim>128</dim>
					<dim>46</dim>
					<dim>46</dim>
				</port>
			</output>
		</layer>
		<layer id="142" name="Mrelu6_stage2_L1" type="ReLU" version="opset1">
			<input>
				<port id="0" precision="FP32">
					<dim>1</dim>
					<dim>128</dim>
					<dim>46</dim>
					<dim>46</dim>
				</port>
			</input>
			<output>
				<port id="1" precision="FP32" names="Mconv6_stage2_L1">
					<dim>1</dim>
					<dim>128</dim>
					<dim>46</dim>
					<dim>46</dim>
				</port>
			</output>
		</layer>
		<layer id="143" name="193" type="Const" version="opset1">
			<data element_type="f32" shape="38, 128, 1, 1" offset="51104228" size="19456"/>
			<output>
				<port id="0" precision="FP32">
					<dim>38</dim>
					<dim>128</dim>
					<dim>1</dim>
					<dim>1</dim>
				</port>
			</output>
		</layer>
		<layer id="144" name="Mconv7_stage2_L1/WithoutBiases" type="Convolution" version="opset1">
			<data strides="1, 1" dilations="1, 1" pads_begin="0, 0" pads_end="0, 0" auto_pad="explicit"/>
			<input>
				<port id="0" precision="FP32">
					<dim>1</dim>
					<dim>128</dim>
					<dim>46</dim>
					<dim>46</dim>
				</port>
				<port id="1" precision="FP32">
					<dim>38</dim>
					<dim>128</dim>
					<dim>1</dim>
					<dim>1</dim>
				</port>
			</input>
			<output>
				<port id="2" precision="FP32">
					<dim>1</dim>
					<dim>38</dim>
					<dim>46</dim>
					<dim>46</dim>
				</port>
			</output>
		</layer>
		<layer id="145" name="Mconv7_stage2_L1/Dims3082" type="Const" version="opset1">
			<data element_type="f32" shape="1, 38, 1, 1" offset="51123684" size="152"/>
			<output>
				<port id="0" precision="FP32">
					<dim>1</dim>
					<dim>38</dim>
					<dim>1</dim>
					<dim>1</dim>
				</port>
			</output>
		</layer>
		<layer id="146" name="Mconv7_stage2_L1" type="Add" version="opset1">
			<data auto_broadcast="numpy"/>
			<input>
				<port id="0" precision="FP32">
					<dim>1</dim>
					<dim>38</dim>
					<dim>46</dim>
					<dim>46</dim>
				</port>
				<port id="1" precision="FP32">
					<dim>1</dim>
					<dim>38</dim>
					<dim>1</dim>
					<dim>1</dim>
				</port>
			</input>
			<output>
				<port id="2" precision="FP32" names="Mconv7_stage2_L1">
					<dim>1</dim>
					<dim>38</dim>
					<dim>46</dim>
					<dim>46</dim>
				</port>
			</output>
		</layer>
		<layer id="147" name="247" type="Const" version="opset1">
			<data element_type="f32" shape="128, 185, 7, 7" offset="51123836" size="4641280"/>
			<output>
				<port id="0" precision="FP32">
					<dim>128</dim>
					<dim>185</dim>
					<dim>7</dim>
					<dim>7</dim>
				</port>
			</output>
		</layer>
		<layer id="148" name="Mconv1_stage2_L2/WithoutBiases" type="Convolution" version="opset1">
			<data strides="1, 1" dilations="1, 1" pads_begin="3, 3" pads_end="3, 3" auto_pad="explicit"/>
			<input>
				<port id="0" precision="FP32">
					<dim>1</dim>
					<dim>185</dim>
					<dim>46</dim>
					<dim>46</dim>
				</port>
				<port id="1" precision="FP32">
					<dim>128</dim>
					<dim>185</dim>
					<dim>7</dim>
					<dim>7</dim>
				</port>
			</input>
			<output>
				<port id="2" precision="FP32">
					<dim>1</dim>
					<dim>128</dim>
					<dim>46</dim>
					<dim>46</dim>
				</port>
			</output>
		</layer>
		<layer id="149" name="Mconv1_stage2_L2/Dims3424" type="Const" version="opset1">
			<data element_type="f32" shape="1, 128, 1, 1" offset="55765116" size="512"/>
			<output>
				<port id="0" precision="FP32">
					<dim>1</dim>
					<dim>128</dim>
					<dim>1</dim>
					<dim>1</dim>
				</port>
			</output>
		</layer>
		<layer id="150" name="Mconv1_stage2_L2" type="Add" version="opset1">
			<data auto_broadcast="numpy"/>
			<input>
				<port id="0" precision="FP32">
					<dim>1</dim>
					<dim>128</dim>
					<dim>46</dim>
					<dim>46</dim>
				</port>
				<port id="1" precision="FP32">
					<dim>1</dim>
					<dim>128</dim>
					<dim>1</dim>
					<dim>1</dim>
				</port>
			</input>
			<output>
				<port id="2" precision="FP32" names="Mconv1_stage2_L2">
					<dim>1</dim>
					<dim>128</dim>
					<dim>46</dim>
					<dim>46</dim>
				</port>
			</output>
		</layer>
		<layer id="151" name="Mrelu1_stage2_L2" type="ReLU" version="opset1">
			<input>
				<port id="0" precision="FP32">
					<dim>1</dim>
					<dim>128</dim>
					<dim>46</dim>
					<dim>46</dim>
				</port>
			</input>
			<output>
				<port id="1" precision="FP32" names="Mconv1_stage2_L2">
					<dim>1</dim>
					<dim>128</dim>
					<dim>46</dim>
					<dim>46</dim>
				</port>
			</output>
		</layer>
		<layer id="152" name="273" type="Const" version="opset1">
			<data element_type="f32" shape="128, 128, 7, 7" offset="55765628" size="3211264"/>
			<output>
				<port id="0" precision="FP32">
					<dim>128</dim>
					<dim>128</dim>
					<dim>7</dim>
					<dim>7</dim>
				</port>
			</output>
		</layer>
		<layer id="153" name="Mconv2_stage2_L2/WithoutBiases" type="Convolution" version="opset1">
			<data strides="1, 1" dilations="1, 1" pads_begin="3, 3" pads_end="3, 3" auto_pad="explicit"/>
			<input>
				<port id="0" precision="FP32">
					<dim>1</dim>
					<dim>128</dim>
					<dim>46</dim>
					<dim>46</dim>
				</port>
				<port id="1" precision="FP32">
					<dim>128</dim>
					<dim>128</dim>
					<dim>7</dim>
					<dim>7</dim>
				</port>
			</input>
			<output>
				<port id="2" precision="FP32">
					<dim>1</dim>
					<dim>128</dim>
					<dim>46</dim>
					<dim>46</dim>
				</port>
			</output>
		</layer>
		<layer id="154" name="Mconv2_stage2_L2/Dims3178" type="Const" version="opset1">
			<data element_type="f32" shape="1, 128, 1, 1" offset="58976892" size="512"/>
			<output>
				<port id="0" precision="FP32">
					<dim>1</dim>
					<dim>128</dim>
					<dim>1</dim>
					<dim>1</dim>
				</port>
			</output>
		</layer>
		<layer id="155" name="Mconv2_stage2_L2" type="Add" version="opset1">
			<data auto_broadcast="numpy"/>
			<input>
				<port id="0" precision="FP32">
					<dim>1</dim>
					<dim>128</dim>
					<dim>46</dim>
					<dim>46</dim>
				</port>
				<port id="1" precision="FP32">
					<dim>1</dim>
					<dim>128</dim>
					<dim>1</dim>
					<dim>1</dim>
				</port>
			</input>
			<output>
				<port id="2" precision="FP32" names="Mconv2_stage2_L2">
					<dim>1</dim>
					<dim>128</dim>
					<dim>46</dim>
					<dim>46</dim>
				</port>
			</output>
		</layer>
		<layer id="156" name="Mrelu2_stage2_L2" type="ReLU" version="opset1">
			<input>
				<port id="0" precision="FP32">
					<dim>1</dim>
					<dim>128</dim>
					<dim>46</dim>
					<dim>46</dim>
				</port>
			</input>
			<output>
				<port id="1" precision="FP32" names="Mconv2_stage2_L2">
					<dim>1</dim>
					<dim>128</dim>
					<dim>46</dim>
					<dim>46</dim>
				</port>
			</output>
		</layer>
		<layer id="157" name="181" type="Const" version="opset1">
			<data element_type="f32" shape="128, 128, 7, 7" offset="58977404" size="3211264"/>
			<output>
				<port id="0" precision="FP32">
					<dim>128</dim>
					<dim>128</dim>
					<dim>7</dim>
					<dim>7</dim>
				</port>
			</output>
		</layer>
		<layer id="158" name="Mconv3_stage2_L2/WithoutBiases" type="Convolution" version="opset1">
			<data strides="1, 1" dilations="1, 1" pads_begin="3, 3" pads_end="3, 3" auto_pad="explicit"/>
			<input>
				<port id="0" precision="FP32">
					<dim>1</dim>
					<dim>128</dim>
					<dim>46</dim>
					<dim>46</dim>
				</port>
				<port id="1" precision="FP32">
					<dim>128</dim>
					<dim>128</dim>
					<dim>7</dim>
					<dim>7</dim>
				</port>
			</input>
			<output>
				<port id="2" precision="FP32">
					<dim>1</dim>
					<dim>128</dim>
					<dim>46</dim>
					<dim>46</dim>
				</port>
			</output>
		</layer>
		<layer id="159" name="Mconv3_stage2_L2/Dims3478" type="Const" version="opset1">
			<data element_type="f32" shape="1, 128, 1, 1" offset="62188668" size="512"/>
			<output>
				<port id="0" precision="FP32">
					<dim>1</dim>
					<dim>128</dim>
					<dim>1</dim>
					<dim>1</dim>
				</port>
			</output>
		</layer>
		<layer id="160" name="Mconv3_stage2_L2" type="Add" version="opset1">
			<data auto_broadcast="numpy"/>
			<input>
				<port id="0" precision="FP32">
					<dim>1</dim>
					<dim>128</dim>
					<dim>46</dim>
					<dim>46</dim>
				</port>
				<port id="1" precision="FP32">
					<dim>1</dim>
					<dim>128</dim>
					<dim>1</dim>
					<dim>1</dim>
				</port>
			</input>
			<output>
				<port id="2" precision="FP32" names="Mconv3_stage2_L2">
					<dim>1</dim>
					<dim>128</dim>
					<dim>46</dim>
					<dim>46</dim>
				</port>
			</output>
		</layer>
		<layer id="161" name="Mrelu3_stage2_L2" type="ReLU" version="opset1">
			<input>
				<port id="0" precision="FP32">
					<dim>1</dim>
					<dim>128</dim>
					<dim>46</dim>
					<dim>46</dim>
				</port>
			</input>
			<output>
				<port id="1" precision="FP32" names="Mconv3_stage2_L2">
					<dim>1</dim>
					<dim>128</dim>
					<dim>46</dim>
					<dim>46</dim>
				</port>
			</output>
		</layer>
		<layer id="162" name="239" type="Const" version="opset1">
			<data element_type="f32" shape="128, 128, 7, 7" offset="62189180" size="3211264"/>
			<output>
				<port id="0" precision="FP32">
					<dim>128</dim>
					<dim>128</dim>
					<dim>7</dim>
					<dim>7</dim>
				</port>
			</output>
		</layer>
		<layer id="163" name="Mconv4_stage2_L2/WithoutBiases" type="Convolution" version="opset1">
			<data strides="1, 1" dilations="1, 1" pads_begin="3, 3" pads_end="3, 3" auto_pad="explicit"/>
			<input>
				<port id="0" precision="FP32">
					<dim>1</dim>
					<dim>128</dim>
					<dim>46</dim>
					<dim>46</dim>
				</port>
				<port id="1" precision="FP32">
					<dim>128</dim>
					<dim>128</dim>
					<dim>7</dim>
					<dim>7</dim>
				</port>
			</input>
			<output>
				<port id="2" precision="FP32">
					<dim>1</dim>
					<dim>128</dim>
					<dim>46</dim>
					<dim>46</dim>
				</port>
			</output>
		</layer>
		<layer id="164" name="Mconv4_stage2_L2/Dims3148" type="Const" version="opset1">
			<data element_type="f32" shape="1, 128, 1, 1" offset="65400444" size="512"/>
			<output>
				<port id="0" precision="FP32">
					<dim>1</dim>
					<dim>128</dim>
					<dim>1</dim>
					<dim>1</dim>
				</port>
			</output>
		</layer>
		<layer id="165" name="Mconv4_stage2_L2" type="Add" version="opset1">
			<data auto_broadcast="numpy"/>
			<input>
				<port id="0" precision="FP32">
					<dim>1</dim>
					<dim>128</dim>
					<dim>46</dim>
					<dim>46</dim>
				</port>
				<port id="1" precision="FP32">
					<dim>1</dim>
					<dim>128</dim>
					<dim>1</dim>
					<dim>1</dim>
				</port>
			</input>
			<output>
				<port id="2" precision="FP32" names="Mconv4_stage2_L2">
					<dim>1</dim>
					<dim>128</dim>
					<dim>46</dim>
					<dim>46</dim>
				</port>
			</output>
		</layer>
		<layer id="166" name="Mrelu4_stage2_L2" type="ReLU" version="opset1">
			<input>
				<port id="0" precision="FP32">
					<dim>1</dim>
					<dim>128</dim>
					<dim>46</dim>
					<dim>46</dim>
				</port>
			</input>
			<output>
				<port id="1" precision="FP32" names="Mconv4_stage2_L2">
					<dim>1</dim>
					<dim>128</dim>
					<dim>46</dim>
					<dim>46</dim>
				</port>
			</output>
		</layer>
		<layer id="167" name="249" type="Const" version="opset1">
			<data element_type="f32" shape="128, 128, 7, 7" offset="65400956" size="3211264"/>
			<output>
				<port id="0" precision="FP32">
					<dim>128</dim>
					<dim>128</dim>
					<dim>7</dim>
					<dim>7</dim>
				</port>
			</output>
		</layer>
		<layer id="168" name="Mconv5_stage2_L2/WithoutBiases" type="Convolution" version="opset1">
			<data strides="1, 1" dilations="1, 1" pads_begin="3, 3" pads_end="3, 3" auto_pad="explicit"/>
			<input>
				<port id="0" precision="FP32">
					<dim>1</dim>
					<dim>128</dim>
					<dim>46</dim>
					<dim>46</dim>
				</port>
				<port id="1" precision="FP32">
					<dim>128</dim>
					<dim>128</dim>
					<dim>7</dim>
					<dim>7</dim>
				</port>
			</input>
			<output>
				<port id="2" precision="FP32">
					<dim>1</dim>
					<dim>128</dim>
					<dim>46</dim>
					<dim>46</dim>
				</port>
			</output>
		</layer>
		<layer id="169" name="Mconv5_stage2_L2/Dims3430" type="Const" version="opset1">
			<data element_type="f32" shape="1, 128, 1, 1" offset="68612220" size="512"/>
			<output>
				<port id="0" precision="FP32">
					<dim>1</dim>
					<dim>128</dim>
					<dim>1</dim>
					<dim>1</dim>
				</port>
			</output>
		</layer>
		<layer id="170" name="Mconv5_stage2_L2" type="Add" version="opset1">
			<data auto_broadcast="numpy"/>
			<input>
				<port id="0" precision="FP32">
					<dim>1</dim>
					<dim>128</dim>
					<dim>46</dim>
					<dim>46</dim>
				</port>
				<port id="1" precision="FP32">
					<dim>1</dim>
					<dim>128</dim>
					<dim>1</dim>
					<dim>1</dim>
				</port>
			</input>
			<output>
				<port id="2" precision="FP32" names="Mconv5_stage2_L2">
					<dim>1</dim>
					<dim>128</dim>
					<dim>46</dim>
					<dim>46</dim>
				</port>
			</output>
		</layer>
		<layer id="171" name="Mrelu5_stage2_L2" type="ReLU" version="opset1">
			<input>
				<port id="0" precision="FP32">
					<dim>1</dim>
					<dim>128</dim>
					<dim>46</dim>
					<dim>46</dim>
				</port>
			</input>
			<output>
				<port id="1" precision="FP32" names="Mconv5_stage2_L2">
					<dim>1</dim>
					<dim>128</dim>
					<dim>46</dim>
					<dim>46</dim>
				</port>
			</output>
		</layer>
		<layer id="172" name="253" type="Const" version="opset1">
			<data element_type="f32" shape="128, 128, 1, 1" offset="68612732" size="65536"/>
			<output>
				<port id="0" precision="FP32">
					<dim>128</dim>
					<dim>128</dim>
					<dim>1</dim>
					<dim>1</dim>
				</port>
			</output>
		</layer>
		<layer id="173" name="Mconv6_stage2_L2/WithoutBiases" type="Convolution" version="opset1">
			<data strides="1, 1" dilations="1, 1" pads_begin="0, 0" pads_end="0, 0" auto_pad="explicit"/>
			<input>
				<port id="0" precision="FP32">
					<dim>1</dim>
					<dim>128</dim>
					<dim>46</dim>
					<dim>46</dim>
				</port>
				<port id="1" precision="FP32">
					<dim>128</dim>
					<dim>128</dim>
					<dim>1</dim>
					<dim>1</dim>
				</port>
			</input>
			<output>
				<port id="2" precision="FP32">
					<dim>1</dim>
					<dim>128</dim>
					<dim>46</dim>
					<dim>46</dim>
				</port>
			</output>
		</layer>
		<layer id="174" name="Mconv6_stage2_L2/Dims3166" type="Const" version="opset1">
			<data element_type="f32" shape="1, 128, 1, 1" offset="68678268" size="512"/>
			<output>
				<port id="0" precision="FP32">
					<dim>1</dim>
					<dim>128</dim>
					<dim>1</dim>
					<dim>1</dim>
				</port>
			</output>
		</layer>
		<layer id="175" name="Mconv6_stage2_L2" type="Add" version="opset1">
			<data auto_broadcast="numpy"/>
			<input>
				<port id="0" precision="FP32">
					<dim>1</dim>
					<dim>128</dim>
					<dim>46</dim>
					<dim>46</dim>
				</port>
				<port id="1" precision="FP32">
					<dim>1</dim>
					<dim>128</dim>
					<dim>1</dim>
					<dim>1</dim>
				</port>
			</input>
			<output>
				<port id="2" precision="FP32" names="Mconv6_stage2_L2">
					<dim>1</dim>
					<dim>128</dim>
					<dim>46</dim>
					<dim>46</dim>
				</port>
			</output>
		</layer>
		<layer id="176" name="Mrelu6_stage2_L2" type="ReLU" version="opset1">
			<input>
				<port id="0" precision="FP32">
					<dim>1</dim>
					<dim>128</dim>
					<dim>46</dim>
					<dim>46</dim>
				</port>
			</input>
			<output>
				<port id="1" precision="FP32" names="Mconv6_stage2_L2">
					<dim>1</dim>
					<dim>128</dim>
					<dim>46</dim>
					<dim>46</dim>
				</port>
			</output>
		</layer>
		<layer id="177" name="177" type="Const" version="opset1">
			<data element_type="f32" shape="19, 128, 1, 1" offset="68678780" size="9728"/>
			<output>
				<port id="0" precision="FP32">
					<dim>19</dim>
					<dim>128</dim>
					<dim>1</dim>
					<dim>1</dim>
				</port>
			</output>
		</layer>
		<layer id="178" name="Mconv7_stage2_L2/WithoutBiases" type="Convolution" version="opset1">
			<data strides="1, 1" dilations="1, 1" pads_begin="0, 0" pads_end="0, 0" auto_pad="explicit"/>
			<input>
				<port id="0" precision="FP32">
					<dim>1</dim>
					<dim>128</dim>
					<dim>46</dim>
					<dim>46</dim>
				</port>
				<port id="1" precision="FP32">
					<dim>19</dim>
					<dim>128</dim>
					<dim>1</dim>
					<dim>1</dim>
				</port>
			</input>
			<output>
				<port id="2" precision="FP32">
					<dim>1</dim>
					<dim>19</dim>
					<dim>46</dim>
					<dim>46</dim>
				</port>
			</output>
		</layer>
		<layer id="179" name="Mconv7_stage2_L2/Dims3064" type="Const" version="opset1">
			<data element_type="f32" shape="1, 19, 1, 1" offset="68688508" size="76"/>
			<output>
				<port id="0" precision="FP32">
					<dim>1</dim>
					<dim>19</dim>
					<dim>1</dim>
					<dim>1</dim>
				</port>
			</output>
		</layer>
		<layer id="180" name="Mconv7_stage2_L2" type="Add" version="opset1">
			<data auto_broadcast="numpy"/>
			<input>
				<port id="0" precision="FP32">
					<dim>1</dim>
					<dim>19</dim>
					<dim>46</dim>
					<dim>46</dim>
				</port>
				<port id="1" precision="FP32">
					<dim>1</dim>
					<dim>19</dim>
					<dim>1</dim>
					<dim>1</dim>
				</port>
			</input>
			<output>
				<port id="2" precision="FP32" names="Mconv7_stage2_L2">
					<dim>1</dim>
					<dim>19</dim>
					<dim>46</dim>
					<dim>46</dim>
				</port>
			</output>
		</layer>
		<layer id="181" name="concat_stage3" type="Concat" version="opset1">
			<data axis="1"/>
			<input>
				<port id="0" precision="FP32">
					<dim>1</dim>
					<dim>38</dim>
					<dim>46</dim>
					<dim>46</dim>
				</port>
				<port id="1" precision="FP32">
					<dim>1</dim>
					<dim>19</dim>
					<dim>46</dim>
					<dim>46</dim>
				</port>
				<port id="2" precision="FP32">
					<dim>1</dim>
					<dim>128</dim>
					<dim>46</dim>
					<dim>46</dim>
				</port>
			</input>
			<output>
				<port id="3" precision="FP32" names="concat_stage3">
					<dim>1</dim>
					<dim>185</dim>
					<dim>46</dim>
					<dim>46</dim>
				</port>
			</output>
		</layer>
		<layer id="182" name="231" type="Const" version="opset1">
			<data element_type="f32" shape="128, 185, 7, 7" offset="68688584" size="4641280"/>
			<output>
				<port id="0" precision="FP32">
					<dim>128</dim>
					<dim>185</dim>
					<dim>7</dim>
					<dim>7</dim>
				</port>
			</output>
		</layer>
		<layer id="183" name="Mconv1_stage3_L1/WithoutBiases" type="Convolution" version="opset1">
			<data strides="1, 1" dilations="1, 1" pads_begin="3, 3" pads_end="3, 3" auto_pad="explicit"/>
			<input>
				<port id="0" precision="FP32">
					<dim>1</dim>
					<dim>185</dim>
					<dim>46</dim>
					<dim>46</dim>
				</port>
				<port id="1" precision="FP32">
					<dim>128</dim>
					<dim>185</dim>
					<dim>7</dim>
					<dim>7</dim>
				</port>
			</input>
			<output>
				<port id="2" precision="FP32">
					<dim>1</dim>
					<dim>128</dim>
					<dim>46</dim>
					<dim>46</dim>
				</port>
			</output>
		</layer>
		<layer id="184" name="Mconv1_stage3_L1/Dims3304" type="Const" version="opset1">
			<data element_type="f32" shape="1, 128, 1, 1" offset="73329864" size="512"/>
			<output>
				<port id="0" precision="FP32">
					<dim>1</dim>
					<dim>128</dim>
					<dim>1</dim>
					<dim>1</dim>
				</port>
			</output>
		</layer>
		<layer id="185" name="Mconv1_stage3_L1" type="Add" version="opset1">
			<data auto_broadcast="numpy"/>
			<input>
				<port id="0" precision="FP32">
					<dim>1</dim>
					<dim>128</dim>
					<dim>46</dim>
					<dim>46</dim>
				</port>
				<port id="1" precision="FP32">
					<dim>1</dim>
					<dim>128</dim>
					<dim>1</dim>
					<dim>1</dim>
				</port>
			</input>
			<output>
				<port id="2" precision="FP32" names="Mconv1_stage3_L1">
					<dim>1</dim>
					<dim>128</dim>
					<dim>46</dim>
					<dim>46</dim>
				</port>
			</output>
		</layer>
		<layer id="186" name="Mrelu1_stage3_L1" type="ReLU" version="opset1">
			<input>
				<port id="0" precision="FP32">
					<dim>1</dim>
					<dim>128</dim>
					<dim>46</dim>
					<dim>46</dim>
				</port>
			</input>
			<output>
				<port id="1" precision="FP32" names="Mconv1_stage3_L1">
					<dim>1</dim>
					<dim>128</dim>
					<dim>46</dim>
					<dim>46</dim>
				</port>
			</output>
		</layer>
		<layer id="187" name="317" type="Const" version="opset1">
			<data element_type="f32" shape="128, 128, 7, 7" offset="73330376" size="3211264"/>
			<output>
				<port id="0" precision="FP32">
					<dim>128</dim>
					<dim>128</dim>
					<dim>7</dim>
					<dim>7</dim>
				</port>
			</output>
		</layer>
		<layer id="188" name="Mconv2_stage3_L1/WithoutBiases" type="Convolution" version="opset1">
			<data strides="1, 1" dilations="1, 1" pads_begin="3, 3" pads_end="3, 3" auto_pad="explicit"/>
			<input>
				<port id="0" precision="FP32">
					<dim>1</dim>
					<dim>128</dim>
					<dim>46</dim>
					<dim>46</dim>
				</port>
				<port id="1" precision="FP32">
					<dim>128</dim>
					<dim>128</dim>
					<dim>7</dim>
					<dim>7</dim>
				</port>
			</input>
			<output>
				<port id="2" precision="FP32">
					<dim>1</dim>
					<dim>128</dim>
					<dim>46</dim>
					<dim>46</dim>
				</port>
			</output>
		</layer>
		<layer id="189" name="Mconv2_stage3_L1/Dims3472" type="Const" version="opset1">
			<data element_type="f32" shape="1, 128, 1, 1" offset="76541640" size="512"/>
			<output>
				<port id="0" precision="FP32">
					<dim>1</dim>
					<dim>128</dim>
					<dim>1</dim>
					<dim>1</dim>
				</port>
			</output>
		</layer>
		<layer id="190" name="Mconv2_stage3_L1" type="Add" version="opset1">
			<data auto_broadcast="numpy"/>
			<input>
				<port id="0" precision="FP32">
					<dim>1</dim>
					<dim>128</dim>
					<dim>46</dim>
					<dim>46</dim>
				</port>
				<port id="1" precision="FP32">
					<dim>1</dim>
					<dim>128</dim>
					<dim>1</dim>
					<dim>1</dim>
				</port>
			</input>
			<output>
				<port id="2" precision="FP32" names="Mconv2_stage3_L1">
					<dim>1</dim>
					<dim>128</dim>
					<dim>46</dim>
					<dim>46</dim>
				</port>
			</output>
		</layer>
		<layer id="191" name="Mrelu2_stage3_L1" type="ReLU" version="opset1">
			<input>
				<port id="0" precision="FP32">
					<dim>1</dim>
					<dim>128</dim>
					<dim>46</dim>
					<dim>46</dim>
				</port>
			</input>
			<output>
				<port id="1" precision="FP32" names="Mconv2_stage3_L1">
					<dim>1</dim>
					<dim>128</dim>
					<dim>46</dim>
					<dim>46</dim>
				</port>
			</output>
		</layer>
		<layer id="192" name="217" type="Const" version="opset1">
			<data element_type="f32" shape="128, 128, 7, 7" offset="76542152" size="3211264"/>
			<output>
				<port id="0" precision="FP32">
					<dim>128</dim>
					<dim>128</dim>
					<dim>7</dim>
					<dim>7</dim>
				</port>
			</output>
		</layer>
		<layer id="193" name="Mconv3_stage3_L1/WithoutBiases" type="Convolution" version="opset1">
			<data strides="1, 1" dilations="1, 1" pads_begin="3, 3" pads_end="3, 3" auto_pad="explicit"/>
			<input>
				<port id="0" precision="FP32">
					<dim>1</dim>
					<dim>128</dim>
					<dim>46</dim>
					<dim>46</dim>
				</port>
				<port id="1" precision="FP32">
					<dim>128</dim>
					<dim>128</dim>
					<dim>7</dim>
					<dim>7</dim>
				</port>
			</input>
			<output>
				<port id="2" precision="FP32">
					<dim>1</dim>
					<dim>128</dim>
					<dim>46</dim>
					<dim>46</dim>
				</port>
			</output>
		</layer>
		<layer id="194" name="Mconv3_stage3_L1/Dims3490" type="Const" version="opset1">
			<data element_type="f32" shape="1, 128, 1, 1" offset="79753416" size="512"/>
			<output>
				<port id="0" precision="FP32">
					<dim>1</dim>
					<dim>128</dim>
					<dim>1</dim>
					<dim>1</dim>
				</port>
			</output>
		</layer>
		<layer id="195" name="Mconv3_stage3_L1" type="Add" version="opset1">
			<data auto_broadcast="numpy"/>
			<input>
				<port id="0" precision="FP32">
					<dim>1</dim>
					<dim>128</dim>
					<dim>46</dim>
					<dim>46</dim>
				</port>
				<port id="1" precision="FP32">
					<dim>1</dim>
					<dim>128</dim>
					<dim>1</dim>
					<dim>1</dim>
				</port>
			</input>
			<output>
				<port id="2" precision="FP32" names="Mconv3_stage3_L1">
					<dim>1</dim>
					<dim>128</dim>
					<dim>46</dim>
					<dim>46</dim>
				</port>
			</output>
		</layer>
		<layer id="196" name="Mrelu3_stage3_L1" type="ReLU" version="opset1">
			<input>
				<port id="0" precision="FP32">
					<dim>1</dim>
					<dim>128</dim>
					<dim>46</dim>
					<dim>46</dim>
				</port>
			</input>
			<output>
				<port id="1" precision="FP32" names="Mconv3_stage3_L1">
					<dim>1</dim>
					<dim>128</dim>
					<dim>46</dim>
					<dim>46</dim>
				</port>
			</output>
		</layer>
		<layer id="197" name="225" type="Const" version="opset1">
			<data element_type="f32" shape="128, 128, 7, 7" offset="79753928" size="3211264"/>
			<output>
				<port id="0" precision="FP32">
					<dim>128</dim>
					<dim>128</dim>
					<dim>7</dim>
					<dim>7</dim>
				</port>
			</output>
		</layer>
		<layer id="198" name="Mconv4_stage3_L1/WithoutBiases" type="Convolution" version="opset1">
			<data strides="1, 1" dilations="1, 1" pads_begin="3, 3" pads_end="3, 3" auto_pad="explicit"/>
			<input>
				<port id="0" precision="FP32">
					<dim>1</dim>
					<dim>128</dim>
					<dim>46</dim>
					<dim>46</dim>
				</port>
				<port id="1" precision="FP32">
					<dim>128</dim>
					<dim>128</dim>
					<dim>7</dim>
					<dim>7</dim>
				</port>
			</input>
			<output>
				<port id="2" precision="FP32">
					<dim>1</dim>
					<dim>128</dim>
					<dim>46</dim>
					<dim>46</dim>
				</port>
			</output>
		</layer>
		<layer id="199" name="Mconv4_stage3_L1/Dims3142" type="Const" version="opset1">
			<data element_type="f32" shape="1, 128, 1, 1" offset="82965192" size="512"/>
			<output>
				<port id="0" precision="FP32">
					<dim>1</dim>
					<dim>128</dim>
					<dim>1</dim>
					<dim>1</dim>
				</port>
			</output>
		</layer>
		<layer id="200" name="Mconv4_stage3_L1" type="Add" version="opset1">
			<data auto_broadcast="numpy"/>
			<input>
				<port id="0" precision="FP32">
					<dim>1</dim>
					<dim>128</dim>
					<dim>46</dim>
					<dim>46</dim>
				</port>
				<port id="1" precision="FP32">
					<dim>1</dim>
					<dim>128</dim>
					<dim>1</dim>
					<dim>1</dim>
				</port>
			</input>
			<output>
				<port id="2" precision="FP32" names="Mconv4_stage3_L1">
					<dim>1</dim>
					<dim>128</dim>
					<dim>46</dim>
					<dim>46</dim>
				</port>
			</output>
		</layer>
		<layer id="201" name="Mrelu4_stage3_L1" type="ReLU" version="opset1">
			<input>
				<port id="0" precision="FP32">
					<dim>1</dim>
					<dim>128</dim>
					<dim>46</dim>
					<dim>46</dim>
				</port>
			</input>
			<output>
				<port id="1" precision="FP32" names="Mconv4_stage3_L1">
					<dim>1</dim>
					<dim>128</dim>
					<dim>46</dim>
					<dim>46</dim>
				</port>
			</output>
		</layer>
		<layer id="202" name="199" type="Const" version="opset1">
			<data element_type="f32" shape="128, 128, 7, 7" offset="82965704" size="3211264"/>
			<output>
				<port id="0" precision="FP32">
					<dim>128</dim>
					<dim>128</dim>
					<dim>7</dim>
					<dim>7</dim>
				</port>
			</output>
		</layer>
		<layer id="203" name="Mconv5_stage3_L1/WithoutBiases" type="Convolution" version="opset1">
			<data strides="1, 1" dilations="1, 1" pads_begin="3, 3" pads_end="3, 3" auto_pad="explicit"/>
			<input>
				<port id="0" precision="FP32">
					<dim>1</dim>
					<dim>128</dim>
					<dim>46</dim>
					<dim>46</dim>
				</port>
				<port id="1" precision="FP32">
					<dim>128</dim>
					<dim>128</dim>
					<dim>7</dim>
					<dim>7</dim>
				</port>
			</input>
			<output>
				<port id="2" precision="FP32">
					<dim>1</dim>
					<dim>128</dim>
					<dim>46</dim>
					<dim>46</dim>
				</port>
			</output>
		</layer>
		<layer id="204" name="Mconv5_stage3_L1/Dims3100" type="Const" version="opset1">
			<data element_type="f32" shape="1, 128, 1, 1" offset="86176968" size="512"/>
			<output>
				<port id="0" precision="FP32">
					<dim>1</dim>
					<dim>128</dim>
					<dim>1</dim>
					<dim>1</dim>
				</port>
			</output>
		</layer>
		<layer id="205" name="Mconv5_stage3_L1" type="Add" version="opset1">
			<data auto_broadcast="numpy"/>
			<input>
				<port id="0" precision="FP32">
					<dim>1</dim>
					<dim>128</dim>
					<dim>46</dim>
					<dim>46</dim>
				</port>
				<port id="1" precision="FP32">
					<dim>1</dim>
					<dim>128</dim>
					<dim>1</dim>
					<dim>1</dim>
				</port>
			</input>
			<output>
				<port id="2" precision="FP32" names="Mconv5_stage3_L1">
					<dim>1</dim>
					<dim>128</dim>
					<dim>46</dim>
					<dim>46</dim>
				</port>
			</output>
		</layer>
		<layer id="206" name="Mrelu5_stage3_L1" type="ReLU" version="opset1">
			<input>
				<port id="0" precision="FP32">
					<dim>1</dim>
					<dim>128</dim>
					<dim>46</dim>
					<dim>46</dim>
				</port>
			</input>
			<output>
				<port id="1" precision="FP32" names="Mconv5_stage3_L1">
					<dim>1</dim>
					<dim>128</dim>
					<dim>46</dim>
					<dim>46</dim>
				</port>
			</output>
		</layer>
		<layer id="207" name="203" type="Const" version="opset1">
			<data element_type="f32" shape="128, 128, 1, 1" offset="86177480" size="65536"/>
			<output>
				<port id="0" precision="FP32">
					<dim>128</dim>
					<dim>128</dim>
					<dim>1</dim>
					<dim>1</dim>
				</port>
			</output>
		</layer>
		<layer id="208" name="Mconv6_stage3_L1/WithoutBiases" type="Convolution" version="opset1">
			<data strides="1, 1" dilations="1, 1" pads_begin="0, 0" pads_end="0, 0" auto_pad="explicit"/>
			<input>
				<port id="0" precision="FP32">
					<dim>1</dim>
					<dim>128</dim>
					<dim>46</dim>
					<dim>46</dim>
				</port>
				<port id="1" precision="FP32">
					<dim>128</dim>
					<dim>128</dim>
					<dim>1</dim>
					<dim>1</dim>
				</port>
			</input>
			<output>
				<port id="2" precision="FP32">
					<dim>1</dim>
					<dim>128</dim>
					<dim>46</dim>
					<dim>46</dim>
				</port>
			</output>
		</layer>
		<layer id="209" name="Mconv6_stage3_L1/Dims3106" type="Const" version="opset1">
			<data element_type="f32" shape="1, 128, 1, 1" offset="86243016" size="512"/>
			<output>
				<port id="0" precision="FP32">
					<dim>1</dim>
					<dim>128</dim>
					<dim>1</dim>
					<dim>1</dim>
				</port>
			</output>
		</layer>
		<layer id="210" name="Mconv6_stage3_L1" type="Add" version="opset1">
			<data auto_broadcast="numpy"/>
			<input>
				<port id="0" precision="FP32">
					<dim>1</dim>
					<dim>128</dim>
					<dim>46</dim>
					<dim>46</dim>
				</port>
				<port id="1" precision="FP32">
					<dim>1</dim>
					<dim>128</dim>
					<dim>1</dim>
					<dim>1</dim>
				</port>
			</input>
			<output>
				<port id="2" precision="FP32" names="Mconv6_stage3_L1">
					<dim>1</dim>
					<dim>128</dim>
					<dim>46</dim>
					<dim>46</dim>
				</port>
			</output>
		</layer>
		<layer id="211" name="Mrelu6_stage3_L1" type="ReLU" version="opset1">
			<input>
				<port id="0" precision="FP32">
					<dim>1</dim>
					<dim>128</dim>
					<dim>46</dim>
					<dim>46</dim>
				</port>
			</input>
			<output>
				<port id="1" precision="FP32" names="Mconv6_stage3_L1">
					<dim>1</dim>
					<dim>128</dim>
					<dim>46</dim>
					<dim>46</dim>
				</port>
			</output>
		</layer>
		<layer id="212" name="281" type="Const" version="opset1">
			<data element_type="f32" shape="38, 128, 1, 1" offset="86243528" size="19456"/>
			<output>
				<port id="0" precision="FP32">
					<dim>38</dim>
					<dim>128</dim>
					<dim>1</dim>
					<dim>1</dim>
				</port>
			</output>
		</layer>
		<layer id="213" name="Mconv7_stage3_L1/WithoutBiases" type="Convolution" version="opset1">
			<data strides="1, 1" dilations="1, 1" pads_begin="0, 0" pads_end="0, 0" auto_pad="explicit"/>
			<input>
				<port id="0" precision="FP32">
					<dim>1</dim>
					<dim>128</dim>
					<dim>46</dim>
					<dim>46</dim>
				</port>
				<port id="1" precision="FP32">
					<dim>38</dim>
					<dim>128</dim>
					<dim>1</dim>
					<dim>1</dim>
				</port>
			</input>
			<output>
				<port id="2" precision="FP32">
					<dim>1</dim>
					<dim>38</dim>
					<dim>46</dim>
					<dim>46</dim>
				</port>
			</output>
		</layer>
		<layer id="214" name="Mconv7_stage3_L1/Dims3544" type="Const" version="opset1">
			<data element_type="f32" shape="1, 38, 1, 1" offset="86262984" size="152"/>
			<output>
				<port id="0" precision="FP32">
					<dim>1</dim>
					<dim>38</dim>
					<dim>1</dim>
					<dim>1</dim>
				</port>
			</output>
		</layer>
		<layer id="215" name="Mconv7_stage3_L1" type="Add" version="opset1">
			<data auto_broadcast="numpy"/>
			<input>
				<port id="0" precision="FP32">
					<dim>1</dim>
					<dim>38</dim>
					<dim>46</dim>
					<dim>46</dim>
				</port>
				<port id="1" precision="FP32">
					<dim>1</dim>
					<dim>38</dim>
					<dim>1</dim>
					<dim>1</dim>
				</port>
			</input>
			<output>
				<port id="2" precision="FP32" names="Mconv7_stage3_L1">
					<dim>1</dim>
					<dim>38</dim>
					<dim>46</dim>
					<dim>46</dim>
				</port>
			</output>
		</layer>
		<layer id="216" name="301" type="Const" version="opset1">
			<data element_type="f32" shape="128, 185, 7, 7" offset="86263136" size="4641280"/>
			<output>
				<port id="0" precision="FP32">
					<dim>128</dim>
					<dim>185</dim>
					<dim>7</dim>
					<dim>7</dim>
				</port>
			</output>
		</layer>
		<layer id="217" name="Mconv1_stage3_L2/WithoutBiases" type="Convolution" version="opset1">
			<data strides="1, 1" dilations="1, 1" pads_begin="3, 3" pads_end="3, 3" auto_pad="explicit"/>
			<input>
				<port id="0" precision="FP32">
					<dim>1</dim>
					<dim>185</dim>
					<dim>46</dim>
					<dim>46</dim>
				</port>
				<port id="1" precision="FP32">
					<dim>128</dim>
					<dim>185</dim>
					<dim>7</dim>
					<dim>7</dim>
				</port>
			</input>
			<output>
				<port id="2" precision="FP32">
					<dim>1</dim>
					<dim>128</dim>
					<dim>46</dim>
					<dim>46</dim>
				</port>
			</output>
		</layer>
		<layer id="218" name="Mconv1_stage3_L2/Dims3208" type="Const" version="opset1">
			<data element_type="f32" shape="1, 128, 1, 1" offset="90904416" size="512"/>
			<output>
				<port id="0" precision="FP32">
					<dim>1</dim>
					<dim>128</dim>
					<dim>1</dim>
					<dim>1</dim>
				</port>
			</output>
		</layer>
		<layer id="219" name="Mconv1_stage3_L2" type="Add" version="opset1">
			<data auto_broadcast="numpy"/>
			<input>
				<port id="0" precision="FP32">
					<dim>1</dim>
					<dim>128</dim>
					<dim>46</dim>
					<dim>46</dim>
				</port>
				<port id="1" precision="FP32">
					<dim>1</dim>
					<dim>128</dim>
					<dim>1</dim>
					<dim>1</dim>
				</port>
			</input>
			<output>
				<port id="2" precision="FP32" names="Mconv1_stage3_L2">
					<dim>1</dim>
					<dim>128</dim>
					<dim>46</dim>
					<dim>46</dim>
				</port>
			</output>
		</layer>
		<layer id="220" name="Mrelu1_stage3_L2" type="ReLU" version="opset1">
			<input>
				<port id="0" precision="FP32">
					<dim>1</dim>
					<dim>128</dim>
					<dim>46</dim>
					<dim>46</dim>
				</port>
			</input>
			<output>
				<port id="1" precision="FP32" names="Mconv1_stage3_L2">
					<dim>1</dim>
					<dim>128</dim>
					<dim>46</dim>
					<dim>46</dim>
				</port>
			</output>
		</layer>
		<layer id="221" name="279" type="Const" version="opset1">
			<data element_type="f32" shape="128, 128, 7, 7" offset="90904928" size="3211264"/>
			<output>
				<port id="0" precision="FP32">
					<dim>128</dim>
					<dim>128</dim>
					<dim>7</dim>
					<dim>7</dim>
				</port>
			</output>
		</layer>
		<layer id="222" name="Mconv2_stage3_L2/WithoutBiases" type="Convolution" version="opset1">
			<data strides="1, 1" dilations="1, 1" pads_begin="3, 3" pads_end="3, 3" auto_pad="explicit"/>
			<input>
				<port id="0" precision="FP32">
					<dim>1</dim>
					<dim>128</dim>
					<dim>46</dim>
					<dim>46</dim>
				</port>
				<port id="1" precision="FP32">
					<dim>128</dim>
					<dim>128</dim>
					<dim>7</dim>
					<dim>7</dim>
				</port>
			</input>
			<output>
				<port id="2" precision="FP32">
					<dim>1</dim>
					<dim>128</dim>
					<dim>46</dim>
					<dim>46</dim>
				</port>
			</output>
		</layer>
		<layer id="223" name="Mconv2_stage3_L2/Dims3538" type="Const" version="opset1">
			<data element_type="f32" shape="1, 128, 1, 1" offset="94116192" size="512"/>
			<output>
				<port id="0" precision="FP32">
					<dim>1</dim>
					<dim>128</dim>
					<dim>1</dim>
					<dim>1</dim>
				</port>
			</output>
		</layer>
		<layer id="224" name="Mconv2_stage3_L2" type="Add" version="opset1">
			<data auto_broadcast="numpy"/>
			<input>
				<port id="0" precision="FP32">
					<dim>1</dim>
					<dim>128</dim>
					<dim>46</dim>
					<dim>46</dim>
				</port>
				<port id="1" precision="FP32">
					<dim>1</dim>
					<dim>128</dim>
					<dim>1</dim>
					<dim>1</dim>
				</port>
			</input>
			<output>
				<port id="2" precision="FP32" names="Mconv2_stage3_L2">
					<dim>1</dim>
					<dim>128</dim>
					<dim>46</dim>
					<dim>46</dim>
				</port>
			</output>
		</layer>
		<layer id="225" name="Mrelu2_stage3_L2" type="ReLU" version="opset1">
			<input>
				<port id="0" precision="FP32">
					<dim>1</dim>
					<dim>128</dim>
					<dim>46</dim>
					<dim>46</dim>
				</port>
			</input>
			<output>
				<port id="1" precision="FP32" names="Mconv2_stage3_L2">
					<dim>1</dim>
					<dim>128</dim>
					<dim>46</dim>
					<dim>46</dim>
				</port>
			</output>
		</layer>
		<layer id="226" name="311" type="Const" version="opset1">
			<data element_type="f32" shape="128, 128, 7, 7" offset="94116704" size="3211264"/>
			<output>
				<port id="0" precision="FP32">
					<dim>128</dim>
					<dim>128</dim>
					<dim>7</dim>
					<dim>7</dim>
				</port>
			</output>
		</layer>
		<layer id="227" name="Mconv3_stage3_L2/WithoutBiases" type="Convolution" version="opset1">
			<data strides="1, 1" dilations="1, 1" pads_begin="3, 3" pads_end="3, 3" auto_pad="explicit"/>
			<input>
				<port id="0" precision="FP32">
					<dim>1</dim>
					<dim>128</dim>
					<dim>46</dim>
					<dim>46</dim>
				</port>
				<port id="1" precision="FP32">
					<dim>128</dim>
					<dim>128</dim>
					<dim>7</dim>
					<dim>7</dim>
				</port>
			</input>
			<output>
				<port id="2" precision="FP32">
					<dim>1</dim>
					<dim>128</dim>
					<dim>46</dim>
					<dim>46</dim>
				</port>
			</output>
		</layer>
		<layer id="228" name="Mconv3_stage3_L2/Dims3460" type="Const" version="opset1">
			<data element_type="f32" shape="1, 128, 1, 1" offset="97327968" size="512"/>
			<output>
				<port id="0" precision="FP32">
					<dim>1</dim>
					<dim>128</dim>
					<dim>1</dim>
					<dim>1</dim>
				</port>
			</output>
		</layer>
		<layer id="229" name="Mconv3_stage3_L2" type="Add" version="opset1">
			<data auto_broadcast="numpy"/>
			<input>
				<port id="0" precision="FP32">
					<dim>1</dim>
					<dim>128</dim>
					<dim>46</dim>
					<dim>46</dim>
				</port>
				<port id="1" precision="FP32">
					<dim>1</dim>
					<dim>128</dim>
					<dim>1</dim>
					<dim>1</dim>
				</port>
			</input>
			<output>
				<port id="2" precision="FP32" names="Mconv3_stage3_L2">
					<dim>1</dim>
					<dim>128</dim>
					<dim>46</dim>
					<dim>46</dim>
				</port>
			</output>
		</layer>
		<layer id="230" name="Mrelu3_stage3_L2" type="ReLU" version="opset1">
			<input>
				<port id="0" precision="FP32">
					<dim>1</dim>
					<dim>128</dim>
					<dim>46</dim>
					<dim>46</dim>
				</port>
			</input>
			<output>
				<port id="1" precision="FP32" names="Mconv3_stage3_L2">
					<dim>1</dim>
					<dim>128</dim>
					<dim>46</dim>
					<dim>46</dim>
				</port>
			</output>
		</layer>
		<layer id="231" name="259" type="Const" version="opset1">
			<data element_type="f32" shape="128, 128, 7, 7" offset="97328480" size="3211264"/>
			<output>
				<port id="0" precision="FP32">
					<dim>128</dim>
					<dim>128</dim>
					<dim>7</dim>
					<dim>7</dim>
				</port>
			</output>
		</layer>
		<layer id="232" name="Mconv4_stage3_L2/WithoutBiases" type="Convolution" version="opset1">
			<data strides="1, 1" dilations="1, 1" pads_begin="3, 3" pads_end="3, 3" auto_pad="explicit"/>
			<input>
				<port id="0" precision="FP32">
					<dim>1</dim>
					<dim>128</dim>
					<dim>46</dim>
					<dim>46</dim>
				</port>
				<port id="1" precision="FP32">
					<dim>128</dim>
					<dim>128</dim>
					<dim>7</dim>
					<dim>7</dim>
				</port>
			</input>
			<output>
				<port id="2" precision="FP32">
					<dim>1</dim>
					<dim>128</dim>
					<dim>46</dim>
					<dim>46</dim>
				</port>
			</output>
		</layer>
		<layer id="233" name="Mconv4_stage3_L2/Dims3514" type="Const" version="opset1">
			<data element_type="f32" shape="1, 128, 1, 1" offset="100539744" size="512"/>
			<output>
				<port id="0" precision="FP32">
					<dim>1</dim>
					<dim>128</dim>
					<dim>1</dim>
					<dim>1</dim>
				</port>
			</output>
		</layer>
		<layer id="234" name="Mconv4_stage3_L2" type="Add" version="opset1">
			<data auto_broadcast="numpy"/>
			<input>
				<port id="0" precision="FP32">
					<dim>1</dim>
					<dim>128</dim>
					<dim>46</dim>
					<dim>46</dim>
				</port>
				<port id="1" precision="FP32">
					<dim>1</dim>
					<dim>128</dim>
					<dim>1</dim>
					<dim>1</dim>
				</port>
			</input>
			<output>
				<port id="2" precision="FP32" names="Mconv4_stage3_L2">
					<dim>1</dim>
					<dim>128</dim>
					<dim>46</dim>
					<dim>46</dim>
				</port>
			</output>
		</layer>
		<layer id="235" name="Mrelu4_stage3_L2" type="ReLU" version="opset1">
			<input>
				<port id="0" precision="FP32">
					<dim>1</dim>
					<dim>128</dim>
					<dim>46</dim>
					<dim>46</dim>
				</port>
			</input>
			<output>
				<port id="1" precision="FP32" names="Mconv4_stage3_L2">
					<dim>1</dim>
					<dim>128</dim>
					<dim>46</dim>
					<dim>46</dim>
				</port>
			</output>
		</layer>
		<layer id="236" name="191" type="Const" version="opset1">
			<data element_type="f32" shape="128, 128, 7, 7" offset="100540256" size="3211264"/>
			<output>
				<port id="0" precision="FP32">
					<dim>128</dim>
					<dim>128</dim>
					<dim>7</dim>
					<dim>7</dim>
				</port>
			</output>
		</layer>
		<layer id="237" name="Mconv5_stage3_L2/WithoutBiases" type="Convolution" version="opset1">
			<data strides="1, 1" dilations="1, 1" pads_begin="3, 3" pads_end="3, 3" auto_pad="explicit"/>
			<input>
				<port id="0" precision="FP32">
					<dim>1</dim>
					<dim>128</dim>
					<dim>46</dim>
					<dim>46</dim>
				</port>
				<port id="1" precision="FP32">
					<dim>128</dim>
					<dim>128</dim>
					<dim>7</dim>
					<dim>7</dim>
				</port>
			</input>
			<output>
				<port id="2" precision="FP32">
					<dim>1</dim>
					<dim>128</dim>
					<dim>46</dim>
					<dim>46</dim>
				</port>
			</output>
		</layer>
		<layer id="238" name="Mconv5_stage3_L2/Dims3400" type="Const" version="opset1">
			<data element_type="f32" shape="1, 128, 1, 1" offset="103751520" size="512"/>
			<output>
				<port id="0" precision="FP32">
					<dim>1</dim>
					<dim>128</dim>
					<dim>1</dim>
					<dim>1</dim>
				</port>
			</output>
		</layer>
		<layer id="239" name="Mconv5_stage3_L2" type="Add" version="opset1">
			<data auto_broadcast="numpy"/>
			<input>
				<port id="0" precision="FP32">
					<dim>1</dim>
					<dim>128</dim>
					<dim>46</dim>
					<dim>46</dim>
				</port>
				<port id="1" precision="FP32">
					<dim>1</dim>
					<dim>128</dim>
					<dim>1</dim>
					<dim>1</dim>
				</port>
			</input>
			<output>
				<port id="2" precision="FP32" names="Mconv5_stage3_L2">
					<dim>1</dim>
					<dim>128</dim>
					<dim>46</dim>
					<dim>46</dim>
				</port>
			</output>
		</layer>
		<layer id="240" name="Mrelu5_stage3_L2" type="ReLU" version="opset1">
			<input>
				<port id="0" precision="FP32">
					<dim>1</dim>
					<dim>128</dim>
					<dim>46</dim>
					<dim>46</dim>
				</port>
			</input>
			<output>
				<port id="1" precision="FP32" names="Mconv5_stage3_L2">
					<dim>1</dim>
					<dim>128</dim>
					<dim>46</dim>
					<dim>46</dim>
				</port>
			</output>
		</layer>
		<layer id="241" name="213" type="Const" version="opset1">
			<data element_type="f32" shape="128, 128, 1, 1" offset="103752032" size="65536"/>
			<output>
				<port id="0" precision="FP32">
					<dim>128</dim>
					<dim>128</dim>
					<dim>1</dim>
					<dim>1</dim>
				</port>
			</output>
		</layer>
		<layer id="242" name="Mconv6_stage3_L2/WithoutBiases" type="Convolution" version="opset1">
			<data strides="1, 1" dilations="1, 1" pads_begin="0, 0" pads_end="0, 0" auto_pad="explicit"/>
			<input>
				<port id="0" precision="FP32">
					<dim>1</dim>
					<dim>128</dim>
					<dim>46</dim>
					<dim>46</dim>
				</port>
				<port id="1" precision="FP32">
					<dim>128</dim>
					<dim>128</dim>
					<dim>1</dim>
					<dim>1</dim>
				</port>
			</input>
			<output>
				<port id="2" precision="FP32">
					<dim>1</dim>
					<dim>128</dim>
					<dim>46</dim>
					<dim>46</dim>
				</port>
			</output>
		</layer>
		<layer id="243" name="Mconv6_stage3_L2/Dims3124" type="Const" version="opset1">
			<data element_type="f32" shape="1, 128, 1, 1" offset="103817568" size="512"/>
			<output>
				<port id="0" precision="FP32">
					<dim>1</dim>
					<dim>128</dim>
					<dim>1</dim>
					<dim>1</dim>
				</port>
			</output>
		</layer>
		<layer id="244" name="Mconv6_stage3_L2" type="Add" version="opset1">
			<data auto_broadcast="numpy"/>
			<input>
				<port id="0" precision="FP32">
					<dim>1</dim>
					<dim>128</dim>
					<dim>46</dim>
					<dim>46</dim>
				</port>
				<port id="1" precision="FP32">
					<dim>1</dim>
					<dim>128</dim>
					<dim>1</dim>
					<dim>1</dim>
				</port>
			</input>
			<output>
				<port id="2" precision="FP32" names="Mconv6_stage3_L2">
					<dim>1</dim>
					<dim>128</dim>
					<dim>46</dim>
					<dim>46</dim>
				</port>
			</output>
		</layer>
		<layer id="245" name="Mrelu6_stage3_L2" type="ReLU" version="opset1">
			<input>
				<port id="0" precision="FP32">
					<dim>1</dim>
					<dim>128</dim>
					<dim>46</dim>
					<dim>46</dim>
				</port>
			</input>
			<output>
				<port id="1" precision="FP32" names="Mconv6_stage3_L2">
					<dim>1</dim>
					<dim>128</dim>
					<dim>46</dim>
					<dim>46</dim>
				</port>
			</output>
		</layer>
		<layer id="246" name="205" type="Const" version="opset1">
			<data element_type="f32" shape="19, 128, 1, 1" offset="103818080" size="9728"/>
			<output>
				<port id="0" precision="FP32">
					<dim>19</dim>
					<dim>128</dim>
					<dim>1</dim>
					<dim>1</dim>
				</port>
			</output>
		</layer>
		<layer id="247" name="Mconv7_stage3_L2/WithoutBiases" type="Convolution" version="opset1">
			<data strides="1, 1" dilations="1, 1" pads_begin="0, 0" pads_end="0, 0" auto_pad="explicit"/>
			<input>
				<port id="0" precision="FP32">
					<dim>1</dim>
					<dim>128</dim>
					<dim>46</dim>
					<dim>46</dim>
				</port>
				<port id="1" precision="FP32">
					<dim>19</dim>
					<dim>128</dim>
					<dim>1</dim>
					<dim>1</dim>
				</port>
			</input>
			<output>
				<port id="2" precision="FP32">
					<dim>1</dim>
					<dim>19</dim>
					<dim>46</dim>
					<dim>46</dim>
				</port>
			</output>
		</layer>
		<layer id="248" name="Mconv7_stage3_L2/Dims3112" type="Const" version="opset1">
			<data element_type="f32" shape="1, 19, 1, 1" offset="103827808" size="76"/>
			<output>
				<port id="0" precision="FP32">
					<dim>1</dim>
					<dim>19</dim>
					<dim>1</dim>
					<dim>1</dim>
				</port>
			</output>
		</layer>
		<layer id="249" name="Mconv7_stage3_L2" type="Add" version="opset1">
			<data auto_broadcast="numpy"/>
			<input>
				<port id="0" precision="FP32">
					<dim>1</dim>
					<dim>19</dim>
					<dim>46</dim>
					<dim>46</dim>
				</port>
				<port id="1" precision="FP32">
					<dim>1</dim>
					<dim>19</dim>
					<dim>1</dim>
					<dim>1</dim>
				</port>
			</input>
			<output>
				<port id="2" precision="FP32" names="Mconv7_stage3_L2">
					<dim>1</dim>
					<dim>19</dim>
					<dim>46</dim>
					<dim>46</dim>
				</port>
			</output>
		</layer>
		<layer id="250" name="concat_stage4" type="Concat" version="opset1">
			<data axis="1"/>
			<input>
				<port id="0" precision="FP32">
					<dim>1</dim>
					<dim>38</dim>
					<dim>46</dim>
					<dim>46</dim>
				</port>
				<port id="1" precision="FP32">
					<dim>1</dim>
					<dim>19</dim>
					<dim>46</dim>
					<dim>46</dim>
				</port>
				<port id="2" precision="FP32">
					<dim>1</dim>
					<dim>128</dim>
					<dim>46</dim>
					<dim>46</dim>
				</port>
			</input>
			<output>
				<port id="3" precision="FP32" names="concat_stage4">
					<dim>1</dim>
					<dim>185</dim>
					<dim>46</dim>
					<dim>46</dim>
				</port>
			</output>
		</layer>
		<layer id="251" name="237" type="Const" version="opset1">
			<data element_type="f32" shape="128, 185, 7, 7" offset="103827884" size="4641280"/>
			<output>
				<port id="0" precision="FP32">
					<dim>128</dim>
					<dim>185</dim>
					<dim>7</dim>
					<dim>7</dim>
				</port>
			</output>
		</layer>
		<layer id="252" name="Mconv1_stage4_L1/WithoutBiases" type="Convolution" version="opset1">
			<data strides="1, 1" dilations="1, 1" pads_begin="3, 3" pads_end="3, 3" auto_pad="explicit"/>
			<input>
				<port id="0" precision="FP32">
					<dim>1</dim>
					<dim>185</dim>
					<dim>46</dim>
					<dim>46</dim>
				</port>
				<port id="1" precision="FP32">
					<dim>128</dim>
					<dim>185</dim>
					<dim>7</dim>
					<dim>7</dim>
				</port>
			</input>
			<output>
				<port id="2" precision="FP32">
					<dim>1</dim>
					<dim>128</dim>
					<dim>46</dim>
					<dim>46</dim>
				</port>
			</output>
		</layer>
		<layer id="253" name="Mconv1_stage4_L1/Dims3502" type="Const" version="opset1">
			<data element_type="f32" shape="1, 128, 1, 1" offset="108469164" size="512"/>
			<output>
				<port id="0" precision="FP32">
					<dim>1</dim>
					<dim>128</dim>
					<dim>1</dim>
					<dim>1</dim>
				</port>
			</output>
		</layer>
		<layer id="254" name="Mconv1_stage4_L1" type="Add" version="opset1">
			<data auto_broadcast="numpy"/>
			<input>
				<port id="0" precision="FP32">
					<dim>1</dim>
					<dim>128</dim>
					<dim>46</dim>
					<dim>46</dim>
				</port>
				<port id="1" precision="FP32">
					<dim>1</dim>
					<dim>128</dim>
					<dim>1</dim>
					<dim>1</dim>
				</port>
			</input>
			<output>
				<port id="2" precision="FP32" names="Mconv1_stage4_L1">
					<dim>1</dim>
					<dim>128</dim>
					<dim>46</dim>
					<dim>46</dim>
				</port>
			</output>
		</layer>
		<layer id="255" name="Mrelu1_stage4_L1" type="ReLU" version="opset1">
			<input>
				<port id="0" precision="FP32">
					<dim>1</dim>
					<dim>128</dim>
					<dim>46</dim>
					<dim>46</dim>
				</port>
			</input>
			<output>
				<port id="1" precision="FP32" names="Mconv1_stage4_L1">
					<dim>1</dim>
					<dim>128</dim>
					<dim>46</dim>
					<dim>46</dim>
				</port>
			</output>
		</layer>
		<layer id="256" name="175" type="Const" version="opset1">
			<data element_type="f32" shape="128, 128, 7, 7" offset="108469676" size="3211264"/>
			<output>
				<port id="0" precision="FP32">
					<dim>128</dim>
					<dim>128</dim>
					<dim>7</dim>
					<dim>7</dim>
				</port>
			</output>
		</layer>
		<layer id="257" name="Mconv2_stage4_L1/WithoutBiases" type="Convolution" version="opset1">
			<data strides="1, 1" dilations="1, 1" pads_begin="3, 3" pads_end="3, 3" auto_pad="explicit"/>
			<input>
				<port id="0" precision="FP32">
					<dim>1</dim>
					<dim>128</dim>
					<dim>46</dim>
					<dim>46</dim>
				</port>
				<port id="1" precision="FP32">
					<dim>128</dim>
					<dim>128</dim>
					<dim>7</dim>
					<dim>7</dim>
				</port>
			</input>
			<output>
				<port id="2" precision="FP32">
					<dim>1</dim>
					<dim>128</dim>
					<dim>46</dim>
					<dim>46</dim>
				</port>
			</output>
		</layer>
		<layer id="258" name="Mconv2_stage4_L1/Dims3262" type="Const" version="opset1">
			<data element_type="f32" shape="1, 128, 1, 1" offset="111680940" size="512"/>
			<output>
				<port id="0" precision="FP32">
					<dim>1</dim>
					<dim>128</dim>
					<dim>1</dim>
					<dim>1</dim>
				</port>
			</output>
		</layer>
		<layer id="259" name="Mconv2_stage4_L1" type="Add" version="opset1">
			<data auto_broadcast="numpy"/>
			<input>
				<port id="0" precision="FP32">
					<dim>1</dim>
					<dim>128</dim>
					<dim>46</dim>
					<dim>46</dim>
				</port>
				<port id="1" precision="FP32">
					<dim>1</dim>
					<dim>128</dim>
					<dim>1</dim>
					<dim>1</dim>
				</port>
			</input>
			<output>
				<port id="2" precision="FP32" names="Mconv2_stage4_L1">
					<dim>1</dim>
					<dim>128</dim>
					<dim>46</dim>
					<dim>46</dim>
				</port>
			</output>
		</layer>
		<layer id="260" name="Mrelu2_stage4_L1" type="ReLU" version="opset1">
			<input>
				<port id="0" precision="FP32">
					<dim>1</dim>
					<dim>128</dim>
					<dim>46</dim>
					<dim>46</dim>
				</port>
			</input>
			<output>
				<port id="1" precision="FP32" names="Mconv2_stage4_L1">
					<dim>1</dim>
					<dim>128</dim>
					<dim>46</dim>
					<dim>46</dim>
				</port>
			</output>
		</layer>
		<layer id="261" name="319" type="Const" version="opset1">
			<data element_type="f32" shape="128, 128, 7, 7" offset="111681452" size="3211264"/>
			<output>
				<port id="0" precision="FP32">
					<dim>128</dim>
					<dim>128</dim>
					<dim>7</dim>
					<dim>7</dim>
				</port>
			</output>
		</layer>
		<layer id="262" name="Mconv3_stage4_L1/WithoutBiases" type="Convolution" version="opset1">
			<data strides="1, 1" dilations="1, 1" pads_begin="3, 3" pads_end="3, 3" auto_pad="explicit"/>
			<input>
				<port id="0" precision="FP32">
					<dim>1</dim>
					<dim>128</dim>
					<dim>46</dim>
					<dim>46</dim>
				</port>
				<port id="1" precision="FP32">
					<dim>128</dim>
					<dim>128</dim>
					<dim>7</dim>
					<dim>7</dim>
				</port>
			</input>
			<output>
				<port id="2" precision="FP32">
					<dim>1</dim>
					<dim>128</dim>
					<dim>46</dim>
					<dim>46</dim>
				</port>
			</output>
		</layer>
		<layer id="263" name="Mconv3_stage4_L1/Dims3562" type="Const" version="opset1">
			<data element_type="f32" shape="1, 128, 1, 1" offset="114892716" size="512"/>
			<output>
				<port id="0" precision="FP32">
					<dim>1</dim>
					<dim>128</dim>
					<dim>1</dim>
					<dim>1</dim>
				</port>
			</output>
		</layer>
		<layer id="264" name="Mconv3_stage4_L1" type="Add" version="opset1">
			<data auto_broadcast="numpy"/>
			<input>
				<port id="0" precision="FP32">
					<dim>1</dim>
					<dim>128</dim>
					<dim>46</dim>
					<dim>46</dim>
				</port>
				<port id="1" precision="FP32">
					<dim>1</dim>
					<dim>128</dim>
					<dim>1</dim>
					<dim>1</dim>
				</port>
			</input>
			<output>
				<port id="2" precision="FP32" names="Mconv3_stage4_L1">
					<dim>1</dim>
					<dim>128</dim>
					<dim>46</dim>
					<dim>46</dim>
				</port>
			</output>
		</layer>
		<layer id="265" name="Mrelu3_stage4_L1" type="ReLU" version="opset1">
			<input>
				<port id="0" precision="FP32">
					<dim>1</dim>
					<dim>128</dim>
					<dim>46</dim>
					<dim>46</dim>
				</port>
			</input>
			<output>
				<port id="1" precision="FP32" names="Mconv3_stage4_L1">
					<dim>1</dim>
					<dim>128</dim>
					<dim>46</dim>
					<dim>46</dim>
				</port>
			</output>
		</layer>
		<layer id="266" name="271" type="Const" version="opset1">
			<data element_type="f32" shape="128, 128, 7, 7" offset="114893228" size="3211264"/>
			<output>
				<port id="0" precision="FP32">
					<dim>128</dim>
					<dim>128</dim>
					<dim>7</dim>
					<dim>7</dim>
				</port>
			</output>
		</layer>
		<layer id="267" name="Mconv4_stage4_L1/WithoutBiases" type="Convolution" version="opset1">
			<data strides="1, 1" dilations="1, 1" pads_begin="3, 3" pads_end="3, 3" auto_pad="explicit"/>
			<input>
				<port id="0" precision="FP32">
					<dim>1</dim>
					<dim>128</dim>
					<dim>46</dim>
					<dim>46</dim>
				</port>
				<port id="1" precision="FP32">
					<dim>128</dim>
					<dim>128</dim>
					<dim>7</dim>
					<dim>7</dim>
				</port>
			</input>
			<output>
				<port id="2" precision="FP32">
					<dim>1</dim>
					<dim>128</dim>
					<dim>46</dim>
					<dim>46</dim>
				</port>
			</output>
		</layer>
		<layer id="268" name="Mconv4_stage4_L1/Dims3532" type="Const" version="opset1">
			<data element_type="f32" shape="1, 128, 1, 1" offset="118104492" size="512"/>
			<output>
				<port id="0" precision="FP32">
					<dim>1</dim>
					<dim>128</dim>
					<dim>1</dim>
					<dim>1</dim>
				</port>
			</output>
		</layer>
		<layer id="269" name="Mconv4_stage4_L1" type="Add" version="opset1">
			<data auto_broadcast="numpy"/>
			<input>
				<port id="0" precision="FP32">
					<dim>1</dim>
					<dim>128</dim>
					<dim>46</dim>
					<dim>46</dim>
				</port>
				<port id="1" precision="FP32">
					<dim>1</dim>
					<dim>128</dim>
					<dim>1</dim>
					<dim>1</dim>
				</port>
			</input>
			<output>
				<port id="2" precision="FP32" names="Mconv4_stage4_L1">
					<dim>1</dim>
					<dim>128</dim>
					<dim>46</dim>
					<dim>46</dim>
				</port>
			</output>
		</layer>
		<layer id="270" name="Mrelu4_stage4_L1" type="ReLU" version="opset1">
			<input>
				<port id="0" precision="FP32">
					<dim>1</dim>
					<dim>128</dim>
					<dim>46</dim>
					<dim>46</dim>
				</port>
			</input>
			<output>
				<port id="1" precision="FP32" names="Mconv4_stage4_L1">
					<dim>1</dim>
					<dim>128</dim>
					<dim>46</dim>
					<dim>46</dim>
				</port>
			</output>
		</layer>
		<layer id="271" name="309" type="Const" version="opset1">
			<data element_type="f32" shape="128, 128, 7, 7" offset="118105004" size="3211264"/>
			<output>
				<port id="0" precision="FP32">
					<dim>128</dim>
					<dim>128</dim>
					<dim>7</dim>
					<dim>7</dim>
				</port>
			</output>
		</layer>
		<layer id="272" name="Mconv5_stage4_L1/WithoutBiases" type="Convolution" version="opset1">
			<data strides="1, 1" dilations="1, 1" pads_begin="3, 3" pads_end="3, 3" auto_pad="explicit"/>
			<input>
				<port id="0" precision="FP32">
					<dim>1</dim>
					<dim>128</dim>
					<dim>46</dim>
					<dim>46</dim>
				</port>
				<port id="1" precision="FP32">
					<dim>128</dim>
					<dim>128</dim>
					<dim>7</dim>
					<dim>7</dim>
				</port>
			</input>
			<output>
				<port id="2" precision="FP32">
					<dim>1</dim>
					<dim>128</dim>
					<dim>46</dim>
					<dim>46</dim>
				</port>
			</output>
		</layer>
		<layer id="273" name="Mconv5_stage4_L1/Dims3556" type="Const" version="opset1">
			<data element_type="f32" shape="1, 128, 1, 1" offset="121316268" size="512"/>
			<output>
				<port id="0" precision="FP32">
					<dim>1</dim>
					<dim>128</dim>
					<dim>1</dim>
					<dim>1</dim>
				</port>
			</output>
		</layer>
		<layer id="274" name="Mconv5_stage4_L1" type="Add" version="opset1">
			<data auto_broadcast="numpy"/>
			<input>
				<port id="0" precision="FP32">
					<dim>1</dim>
					<dim>128</dim>
					<dim>46</dim>
					<dim>46</dim>
				</port>
				<port id="1" precision="FP32">
					<dim>1</dim>
					<dim>128</dim>
					<dim>1</dim>
					<dim>1</dim>
				</port>
			</input>
			<output>
				<port id="2" precision="FP32" names="Mconv5_stage4_L1">
					<dim>1</dim>
					<dim>128</dim>
					<dim>46</dim>
					<dim>46</dim>
				</port>
			</output>
		</layer>
		<layer id="275" name="Mrelu5_stage4_L1" type="ReLU" version="opset1">
			<input>
				<port id="0" precision="FP32">
					<dim>1</dim>
					<dim>128</dim>
					<dim>46</dim>
					<dim>46</dim>
				</port>
			</input>
			<output>
				<port id="1" precision="FP32" names="Mconv5_stage4_L1">
					<dim>1</dim>
					<dim>128</dim>
					<dim>46</dim>
					<dim>46</dim>
				</port>
			</output>
		</layer>
		<layer id="276" name="277" type="Const" version="opset1">
			<data element_type="f32" shape="128, 128, 1, 1" offset="121316780" size="65536"/>
			<output>
				<port id="0" precision="FP32">
					<dim>128</dim>
					<dim>128</dim>
					<dim>1</dim>
					<dim>1</dim>
				</port>
			</output>
		</layer>
		<layer id="277" name="Mconv6_stage4_L1/WithoutBiases" type="Convolution" version="opset1">
			<data strides="1, 1" dilations="1, 1" pads_begin="0, 0" pads_end="0, 0" auto_pad="explicit"/>
			<input>
				<port id="0" precision="FP32">
					<dim>1</dim>
					<dim>128</dim>
					<dim>46</dim>
					<dim>46</dim>
				</port>
				<port id="1" precision="FP32">
					<dim>128</dim>
					<dim>128</dim>
					<dim>1</dim>
					<dim>1</dim>
				</port>
			</input>
			<output>
				<port id="2" precision="FP32">
					<dim>1</dim>
					<dim>128</dim>
					<dim>46</dim>
					<dim>46</dim>
				</port>
			</output>
		</layer>
		<layer id="278" name="Mconv6_stage4_L1/Dims3184" type="Const" version="opset1">
			<data element_type="f32" shape="1, 128, 1, 1" offset="121382316" size="512"/>
			<output>
				<port id="0" precision="FP32">
					<dim>1</dim>
					<dim>128</dim>
					<dim>1</dim>
					<dim>1</dim>
				</port>
			</output>
		</layer>
		<layer id="279" name="Mconv6_stage4_L1" type="Add" version="opset1">
			<data auto_broadcast="numpy"/>
			<input>
				<port id="0" precision="FP32">
					<dim>1</dim>
					<dim>128</dim>
					<dim>46</dim>
					<dim>46</dim>
				</port>
				<port id="1" precision="FP32">
					<dim>1</dim>
					<dim>128</dim>
					<dim>1</dim>
					<dim>1</dim>
				</port>
			</input>
			<output>
				<port id="2" precision="FP32" names="Mconv6_stage4_L1">
					<dim>1</dim>
					<dim>128</dim>
					<dim>46</dim>
					<dim>46</dim>
				</port>
			</output>
		</layer>
		<layer id="280" name="Mrelu6_stage4_L1" type="ReLU" version="opset1">
			<input>
				<port id="0" precision="FP32">
					<dim>1</dim>
					<dim>128</dim>
					<dim>46</dim>
					<dim>46</dim>
				</port>
			</input>
			<output>
				<port id="1" precision="FP32" names="Mconv6_stage4_L1">
					<dim>1</dim>
					<dim>128</dim>
					<dim>46</dim>
					<dim>46</dim>
				</port>
			</output>
		</layer>
		<layer id="281" name="325" type="Const" version="opset1">
			<data element_type="f32" shape="38, 128, 1, 1" offset="121382828" size="19456"/>
			<output>
				<port id="0" precision="FP32">
					<dim>38</dim>
					<dim>128</dim>
					<dim>1</dim>
					<dim>1</dim>
				</port>
			</output>
		</layer>
		<layer id="282" name="Mconv7_stage4_L1/WithoutBiases" type="Convolution" version="opset1">
			<data strides="1, 1" dilations="1, 1" pads_begin="0, 0" pads_end="0, 0" auto_pad="explicit"/>
			<input>
				<port id="0" precision="FP32">
					<dim>1</dim>
					<dim>128</dim>
					<dim>46</dim>
					<dim>46</dim>
				</port>
				<port id="1" precision="FP32">
					<dim>38</dim>
					<dim>128</dim>
					<dim>1</dim>
					<dim>1</dim>
				</port>
			</input>
			<output>
				<port id="2" precision="FP32">
					<dim>1</dim>
					<dim>38</dim>
					<dim>46</dim>
					<dim>46</dim>
				</port>
			</output>
		</layer>
		<layer id="283" name="Mconv7_stage4_L1/Dims3232" type="Const" version="opset1">
			<data element_type="f32" shape="1, 38, 1, 1" offset="121402284" size="152"/>
			<output>
				<port id="0" precision="FP32">
					<dim>1</dim>
					<dim>38</dim>
					<dim>1</dim>
					<dim>1</dim>
				</port>
			</output>
		</layer>
		<layer id="284" name="Mconv7_stage4_L1" type="Add" version="opset1">
			<data auto_broadcast="numpy"/>
			<input>
				<port id="0" precision="FP32">
					<dim>1</dim>
					<dim>38</dim>
					<dim>46</dim>
					<dim>46</dim>
				</port>
				<port id="1" precision="FP32">
					<dim>1</dim>
					<dim>38</dim>
					<dim>1</dim>
					<dim>1</dim>
				</port>
			</input>
			<output>
				<port id="2" precision="FP32" names="Mconv7_stage4_L1">
					<dim>1</dim>
					<dim>38</dim>
					<dim>46</dim>
					<dim>46</dim>
				</port>
			</output>
		</layer>
		<layer id="285" name="201" type="Const" version="opset1">
			<data element_type="f32" shape="128, 185, 7, 7" offset="121402436" size="4641280"/>
			<output>
				<port id="0" precision="FP32">
					<dim>128</dim>
					<dim>185</dim>
					<dim>7</dim>
					<dim>7</dim>
				</port>
			</output>
		</layer>
		<layer id="286" name="Mconv1_stage4_L2/WithoutBiases" type="Convolution" version="opset1">
			<data strides="1, 1" dilations="1, 1" pads_begin="3, 3" pads_end="3, 3" auto_pad="explicit"/>
			<input>
				<port id="0" precision="FP32">
					<dim>1</dim>
					<dim>185</dim>
					<dim>46</dim>
					<dim>46</dim>
				</port>
				<port id="1" precision="FP32">
					<dim>128</dim>
					<dim>185</dim>
					<dim>7</dim>
					<dim>7</dim>
				</port>
			</input>
			<output>
				<port id="2" precision="FP32">
					<dim>1</dim>
					<dim>128</dim>
					<dim>46</dim>
					<dim>46</dim>
				</port>
			</output>
		</layer>
		<layer id="287" name="Mconv1_stage4_L2/Dims3274" type="Const" version="opset1">
			<data element_type="f32" shape="1, 128, 1, 1" offset="126043716" size="512"/>
			<output>
				<port id="0" precision="FP32">
					<dim>1</dim>
					<dim>128</dim>
					<dim>1</dim>
					<dim>1</dim>
				</port>
			</output>
		</layer>
		<layer id="288" name="Mconv1_stage4_L2" type="Add" version="opset1">
			<data auto_broadcast="numpy"/>
			<input>
				<port id="0" precision="FP32">
					<dim>1</dim>
					<dim>128</dim>
					<dim>46</dim>
					<dim>46</dim>
				</port>
				<port id="1" precision="FP32">
					<dim>1</dim>
					<dim>128</dim>
					<dim>1</dim>
					<dim>1</dim>
				</port>
			</input>
			<output>
				<port id="2" precision="FP32" names="Mconv1_stage4_L2">
					<dim>1</dim>
					<dim>128</dim>
					<dim>46</dim>
					<dim>46</dim>
				</port>
			</output>
		</layer>
		<layer id="289" name="Mrelu1_stage4_L2" type="ReLU" version="opset1">
			<input>
				<port id="0" precision="FP32">
					<dim>1</dim>
					<dim>128</dim>
					<dim>46</dim>
					<dim>46</dim>
				</port>
			</input>
			<output>
				<port id="1" precision="FP32" names="Mconv1_stage4_L2">
					<dim>1</dim>
					<dim>128</dim>
					<dim>46</dim>
					<dim>46</dim>
				</port>
			</output>
		</layer>
		<layer id="290" name="195" type="Const" version="opset1">
			<data element_type="f32" shape="128, 128, 7, 7" offset="126044228" size="3211264"/>
			<output>
				<port id="0" precision="FP32">
					<dim>128</dim>
					<dim>128</dim>
					<dim>7</dim>
					<dim>7</dim>
				</port>
			</output>
		</layer>
		<layer id="291" name="Mconv2_stage4_L2/WithoutBiases" type="Convolution" version="opset1">
			<data strides="1, 1" dilations="1, 1" pads_begin="3, 3" pads_end="3, 3" auto_pad="explicit"/>
			<input>
				<port id="0" precision="FP32">
					<dim>1</dim>
					<dim>128</dim>
					<dim>46</dim>
					<dim>46</dim>
				</port>
				<port id="1" precision="FP32">
					<dim>128</dim>
					<dim>128</dim>
					<dim>7</dim>
					<dim>7</dim>
				</port>
			</input>
			<output>
				<port id="2" precision="FP32">
					<dim>1</dim>
					<dim>128</dim>
					<dim>46</dim>
					<dim>46</dim>
				</port>
			</output>
		</layer>
		<layer id="292" name="Mconv2_stage4_L2/Dims3088" type="Const" version="opset1">
			<data element_type="f32" shape="1, 128, 1, 1" offset="129255492" size="512"/>
			<output>
				<port id="0" precision="FP32">
					<dim>1</dim>
					<dim>128</dim>
					<dim>1</dim>
					<dim>1</dim>
				</port>
			</output>
		</layer>
		<layer id="293" name="Mconv2_stage4_L2" type="Add" version="opset1">
			<data auto_broadcast="numpy"/>
			<input>
				<port id="0" precision="FP32">
					<dim>1</dim>
					<dim>128</dim>
					<dim>46</dim>
					<dim>46</dim>
				</port>
				<port id="1" precision="FP32">
					<dim>1</dim>
					<dim>128</dim>
					<dim>1</dim>
					<dim>1</dim>
				</port>
			</input>
			<output>
				<port id="2" precision="FP32" names="Mconv2_stage4_L2">
					<dim>1</dim>
					<dim>128</dim>
					<dim>46</dim>
					<dim>46</dim>
				</port>
			</output>
		</layer>
		<layer id="294" name="Mrelu2_stage4_L2" type="ReLU" version="opset1">
			<input>
				<port id="0" precision="FP32">
					<dim>1</dim>
					<dim>128</dim>
					<dim>46</dim>
					<dim>46</dim>
				</port>
			</input>
			<output>
				<port id="1" precision="FP32" names="Mconv2_stage4_L2">
					<dim>1</dim>
					<dim>128</dim>
					<dim>46</dim>
					<dim>46</dim>
				</port>
			</output>
		</layer>
		<layer id="295" name="327" type="Const" version="opset1">
			<data element_type="f32" shape="128, 128, 7, 7" offset="129256004" size="3211264"/>
			<output>
				<port id="0" precision="FP32">
					<dim>128</dim>
					<dim>128</dim>
					<dim>7</dim>
					<dim>7</dim>
				</port>
			</output>
		</layer>
		<layer id="296" name="Mconv3_stage4_L2/WithoutBiases" type="Convolution" version="opset1">
			<data strides="1, 1" dilations="1, 1" pads_begin="3, 3" pads_end="3, 3" auto_pad="explicit"/>
			<input>
				<port id="0" precision="FP32">
					<dim>1</dim>
					<dim>128</dim>
					<dim>46</dim>
					<dim>46</dim>
				</port>
				<port id="1" precision="FP32">
					<dim>128</dim>
					<dim>128</dim>
					<dim>7</dim>
					<dim>7</dim>
				</port>
			</input>
			<output>
				<port id="2" precision="FP32">
					<dim>1</dim>
					<dim>128</dim>
					<dim>46</dim>
					<dim>46</dim>
				</port>
			</output>
		</layer>
		<layer id="297" name="Mconv3_stage4_L2/Dims3238" type="Const" version="opset1">
			<data element_type="f32" shape="1, 128, 1, 1" offset="132467268" size="512"/>
			<output>
				<port id="0" precision="FP32">
					<dim>1</dim>
					<dim>128</dim>
					<dim>1</dim>
					<dim>1</dim>
				</port>
			</output>
		</layer>
		<layer id="298" name="Mconv3_stage4_L2" type="Add" version="opset1">
			<data auto_broadcast="numpy"/>
			<input>
				<port id="0" precision="FP32">
					<dim>1</dim>
					<dim>128</dim>
					<dim>46</dim>
					<dim>46</dim>
				</port>
				<port id="1" precision="FP32">
					<dim>1</dim>
					<dim>128</dim>
					<dim>1</dim>
					<dim>1</dim>
				</port>
			</input>
			<output>
				<port id="2" precision="FP32" names="Mconv3_stage4_L2">
					<dim>1</dim>
					<dim>128</dim>
					<dim>46</dim>
					<dim>46</dim>
				</port>
			</output>
		</layer>
		<layer id="299" name="Mrelu3_stage4_L2" type="ReLU" version="opset1">
			<input>
				<port id="0" precision="FP32">
					<dim>1</dim>
					<dim>128</dim>
					<dim>46</dim>
					<dim>46</dim>
				</port>
			</input>
			<output>
				<port id="1" precision="FP32" names="Mconv3_stage4_L2">
					<dim>1</dim>
					<dim>128</dim>
					<dim>46</dim>
					<dim>46</dim>
				</port>
			</output>
		</layer>
		<layer id="300" name="331" type="Const" version="opset1">
			<data element_type="f32" shape="128, 128, 7, 7" offset="132467780" size="3211264"/>
			<output>
				<port id="0" precision="FP32">
					<dim>128</dim>
					<dim>128</dim>
					<dim>7</dim>
					<dim>7</dim>
				</port>
			</output>
		</layer>
		<layer id="301" name="Mconv4_stage4_L2/WithoutBiases" type="Convolution" version="opset1">
			<data strides="1, 1" dilations="1, 1" pads_begin="3, 3" pads_end="3, 3" auto_pad="explicit"/>
			<input>
				<port id="0" precision="FP32">
					<dim>1</dim>
					<dim>128</dim>
					<dim>46</dim>
					<dim>46</dim>
				</port>
				<port id="1" precision="FP32">
					<dim>128</dim>
					<dim>128</dim>
					<dim>7</dim>
					<dim>7</dim>
				</port>
			</input>
			<output>
				<port id="2" precision="FP32">
					<dim>1</dim>
					<dim>128</dim>
					<dim>46</dim>
					<dim>46</dim>
				</port>
			</output>
		</layer>
		<layer id="302" name="Mconv4_stage4_L2/Dims3370" type="Const" version="opset1">
			<data element_type="f32" shape="1, 128, 1, 1" offset="135679044" size="512"/>
			<output>
				<port id="0" precision="FP32">
					<dim>1</dim>
					<dim>128</dim>
					<dim>1</dim>
					<dim>1</dim>
				</port>
			</output>
		</layer>
		<layer id="303" name="Mconv4_stage4_L2" type="Add" version="opset1">
			<data auto_broadcast="numpy"/>
			<input>
				<port id="0" precision="FP32">
					<dim>1</dim>
					<dim>128</dim>
					<dim>46</dim>
					<dim>46</dim>
				</port>
				<port id="1" precision="FP32">
					<dim>1</dim>
					<dim>128</dim>
					<dim>1</dim>
					<dim>1</dim>
				</port>
			</input>
			<output>
				<port id="2" precision="FP32" names="Mconv4_stage4_L2">
					<dim>1</dim>
					<dim>128</dim>
					<dim>46</dim>
					<dim>46</dim>
				</port>
			</output>
		</layer>
		<layer id="304" name="Mrelu4_stage4_L2" type="ReLU" version="opset1">
			<input>
				<port id="0" precision="FP32">
					<dim>1</dim>
					<dim>128</dim>
					<dim>46</dim>
					<dim>46</dim>
				</port>
			</input>
			<output>
				<port id="1" precision="FP32" names="Mconv4_stage4_L2">
					<dim>1</dim>
					<dim>128</dim>
					<dim>46</dim>
					<dim>46</dim>
				</port>
			</output>
		</layer>
		<layer id="305" name="257" type="Const" version="opset1">
			<data element_type="f32" shape="128, 128, 7, 7" offset="135679556" size="3211264"/>
			<output>
				<port id="0" precision="FP32">
					<dim>128</dim>
					<dim>128</dim>
					<dim>7</dim>
					<dim>7</dim>
				</port>
			</output>
		</layer>
		<layer id="306" name="Mconv5_stage4_L2/WithoutBiases" type="Convolution" version="opset1">
			<data strides="1, 1" dilations="1, 1" pads_begin="3, 3" pads_end="3, 3" auto_pad="explicit"/>
			<input>
				<port id="0" precision="FP32">
					<dim>1</dim>
					<dim>128</dim>
					<dim>46</dim>
					<dim>46</dim>
				</port>
				<port id="1" precision="FP32">
					<dim>128</dim>
					<dim>128</dim>
					<dim>7</dim>
					<dim>7</dim>
				</port>
			</input>
			<output>
				<port id="2" precision="FP32">
					<dim>1</dim>
					<dim>128</dim>
					<dim>46</dim>
					<dim>46</dim>
				</port>
			</output>
		</layer>
		<layer id="307" name="Mconv5_stage4_L2/Dims3436" type="Const" version="opset1">
			<data element_type="f32" shape="1, 128, 1, 1" offset="138890820" size="512"/>
			<output>
				<port id="0" precision="FP32">
					<dim>1</dim>
					<dim>128</dim>
					<dim>1</dim>
					<dim>1</dim>
				</port>
			</output>
		</layer>
		<layer id="308" name="Mconv5_stage4_L2" type="Add" version="opset1">
			<data auto_broadcast="numpy"/>
			<input>
				<port id="0" precision="FP32">
					<dim>1</dim>
					<dim>128</dim>
					<dim>46</dim>
					<dim>46</dim>
				</port>
				<port id="1" precision="FP32">
					<dim>1</dim>
					<dim>128</dim>
					<dim>1</dim>
					<dim>1</dim>
				</port>
			</input>
			<output>
				<port id="2" precision="FP32" names="Mconv5_stage4_L2">
					<dim>1</dim>
					<dim>128</dim>
					<dim>46</dim>
					<dim>46</dim>
				</port>
			</output>
		</layer>
		<layer id="309" name="Mrelu5_stage4_L2" type="ReLU" version="opset1">
			<input>
				<port id="0" precision="FP32">
					<dim>1</dim>
					<dim>128</dim>
					<dim>46</dim>
					<dim>46</dim>
				</port>
			</input>
			<output>
				<port id="1" precision="FP32" names="Mconv5_stage4_L2">
					<dim>1</dim>
					<dim>128</dim>
					<dim>46</dim>
					<dim>46</dim>
				</port>
			</output>
		</layer>
		<layer id="310" name="283" type="Const" version="opset1">
			<data element_type="f32" shape="128, 128, 1, 1" offset="138891332" size="65536"/>
			<output>
				<port id="0" precision="FP32">
					<dim>128</dim>
					<dim>128</dim>
					<dim>1</dim>
					<dim>1</dim>
				</port>
			</output>
		</layer>
		<layer id="311" name="Mconv6_stage4_L2/WithoutBiases" type="Convolution" version="opset1">
			<data strides="1, 1" dilations="1, 1" pads_begin="0, 0" pads_end="0, 0" auto_pad="explicit"/>
			<input>
				<port id="0" precision="FP32">
					<dim>1</dim>
					<dim>128</dim>
					<dim>46</dim>
					<dim>46</dim>
				</port>
				<port id="1" precision="FP32">
					<dim>128</dim>
					<dim>128</dim>
					<dim>1</dim>
					<dim>1</dim>
				</port>
			</input>
			<output>
				<port id="2" precision="FP32">
					<dim>1</dim>
					<dim>128</dim>
					<dim>46</dim>
					<dim>46</dim>
				</port>
			</output>
		</layer>
		<layer id="312" name="Mconv6_stage4_L2/Dims3334" type="Const" version="opset1">
			<data element_type="f32" shape="1, 128, 1, 1" offset="138956868" size="512"/>
			<output>
				<port id="0" precision="FP32">
					<dim>1</dim>
					<dim>128</dim>
					<dim>1</dim>
					<dim>1</dim>
				</port>
			</output>
		</layer>
		<layer id="313" name="Mconv6_stage4_L2" type="Add" version="opset1">
			<data auto_broadcast="numpy"/>
			<input>
				<port id="0" precision="FP32">
					<dim>1</dim>
					<dim>128</dim>
					<dim>46</dim>
					<dim>46</dim>
				</port>
				<port id="1" precision="FP32">
					<dim>1</dim>
					<dim>128</dim>
					<dim>1</dim>
					<dim>1</dim>
				</port>
			</input>
			<output>
				<port id="2" precision="FP32" names="Mconv6_stage4_L2">
					<dim>1</dim>
					<dim>128</dim>
					<dim>46</dim>
					<dim>46</dim>
				</port>
			</output>
		</layer>
		<layer id="314" name="Mrelu6_stage4_L2" type="ReLU" version="opset1">
			<input>
				<port id="0" precision="FP32">
					<dim>1</dim>
					<dim>128</dim>
					<dim>46</dim>
					<dim>46</dim>
				</port>
			</input>
			<output>
				<port id="1" precision="FP32" names="Mconv6_stage4_L2">
					<dim>1</dim>
					<dim>128</dim>
					<dim>46</dim>
					<dim>46</dim>
				</port>
			</output>
		</layer>
		<layer id="315" name="291" type="Const" version="opset1">
			<data element_type="f32" shape="19, 128, 1, 1" offset="138957380" size="9728"/>
			<output>
				<port id="0" precision="FP32">
					<dim>19</dim>
					<dim>128</dim>
					<dim>1</dim>
					<dim>1</dim>
				</port>
			</output>
		</layer>
		<layer id="316" name="Mconv7_stage4_L2/WithoutBiases" type="Convolution" version="opset1">
			<data strides="1, 1" dilations="1, 1" pads_begin="0, 0" pads_end="0, 0" auto_pad="explicit"/>
			<input>
				<port id="0" precision="FP32">
					<dim>1</dim>
					<dim>128</dim>
					<dim>46</dim>
					<dim>46</dim>
				</port>
				<port id="1" precision="FP32">
					<dim>19</dim>
					<dim>128</dim>
					<dim>1</dim>
					<dim>1</dim>
				</port>
			</input>
			<output>
				<port id="2" precision="FP32">
					<dim>1</dim>
					<dim>19</dim>
					<dim>46</dim>
					<dim>46</dim>
				</port>
			</output>
		</layer>
		<layer id="317" name="Mconv7_stage4_L2/Dims3196" type="Const" version="opset1">
			<data element_type="f32" shape="1, 19, 1, 1" offset="138967108" size="76"/>
			<output>
				<port id="0" precision="FP32">
					<dim>1</dim>
					<dim>19</dim>
					<dim>1</dim>
					<dim>1</dim>
				</port>
			</output>
		</layer>
		<layer id="318" name="Mconv7_stage4_L2" type="Add" version="opset1">
			<data auto_broadcast="numpy"/>
			<input>
				<port id="0" precision="FP32">
					<dim>1</dim>
					<dim>19</dim>
					<dim>46</dim>
					<dim>46</dim>
				</port>
				<port id="1" precision="FP32">
					<dim>1</dim>
					<dim>19</dim>
					<dim>1</dim>
					<dim>1</dim>
				</port>
			</input>
			<output>
				<port id="2" precision="FP32" names="Mconv7_stage4_L2">
					<dim>1</dim>
					<dim>19</dim>
					<dim>46</dim>
					<dim>46</dim>
				</port>
			</output>
		</layer>
		<layer id="319" name="concat_stage5" type="Concat" version="opset1">
			<data axis="1"/>
			<input>
				<port id="0" precision="FP32">
					<dim>1</dim>
					<dim>38</dim>
					<dim>46</dim>
					<dim>46</dim>
				</port>
				<port id="1" precision="FP32">
					<dim>1</dim>
					<dim>19</dim>
					<dim>46</dim>
					<dim>46</dim>
				</port>
				<port id="2" precision="FP32">
					<dim>1</dim>
					<dim>128</dim>
					<dim>46</dim>
					<dim>46</dim>
				</port>
			</input>
			<output>
				<port id="3" precision="FP32" names="concat_stage5">
					<dim>1</dim>
					<dim>185</dim>
					<dim>46</dim>
					<dim>46</dim>
				</port>
			</output>
		</layer>
		<layer id="320" name="207" type="Const" version="opset1">
			<data element_type="f32" shape="128, 185, 7, 7" offset="138967184" size="4641280"/>
			<output>
				<port id="0" precision="FP32">
					<dim>128</dim>
					<dim>185</dim>
					<dim>7</dim>
					<dim>7</dim>
				</port>
			</output>
		</layer>
		<layer id="321" name="Mconv1_stage5_L1/WithoutBiases" type="Convolution" version="opset1">
			<data strides="1, 1" dilations="1, 1" pads_begin="3, 3" pads_end="3, 3" auto_pad="explicit"/>
			<input>
				<port id="0" precision="FP32">
					<dim>1</dim>
					<dim>185</dim>
					<dim>46</dim>
					<dim>46</dim>
				</port>
				<port id="1" precision="FP32">
					<dim>128</dim>
					<dim>185</dim>
					<dim>7</dim>
					<dim>7</dim>
				</port>
			</input>
			<output>
				<port id="2" precision="FP32">
					<dim>1</dim>
					<dim>128</dim>
					<dim>46</dim>
					<dim>46</dim>
				</port>
			</output>
		</layer>
		<layer id="322" name="Mconv1_stage5_L1/Dims3118" type="Const" version="opset1">
			<data element_type="f32" shape="1, 128, 1, 1" offset="143608464" size="512"/>
			<output>
				<port id="0" precision="FP32">
					<dim>1</dim>
					<dim>128</dim>
					<dim>1</dim>
					<dim>1</dim>
				</port>
			</output>
		</layer>
		<layer id="323" name="Mconv1_stage5_L1" type="Add" version="opset1">
			<data auto_broadcast="numpy"/>
			<input>
				<port id="0" precision="FP32">
					<dim>1</dim>
					<dim>128</dim>
					<dim>46</dim>
					<dim>46</dim>
				</port>
				<port id="1" precision="FP32">
					<dim>1</dim>
					<dim>128</dim>
					<dim>1</dim>
					<dim>1</dim>
				</port>
			</input>
			<output>
				<port id="2" precision="FP32" names="Mconv1_stage5_L1">
					<dim>1</dim>
					<dim>128</dim>
					<dim>46</dim>
					<dim>46</dim>
				</port>
			</output>
		</layer>
		<layer id="324" name="Mrelu1_stage5_L1" type="ReLU" version="opset1">
			<input>
				<port id="0" precision="FP32">
					<dim>1</dim>
					<dim>128</dim>
					<dim>46</dim>
					<dim>46</dim>
				</port>
			</input>
			<output>
				<port id="1" precision="FP32" names="Mconv1_stage5_L1">
					<dim>1</dim>
					<dim>128</dim>
					<dim>46</dim>
					<dim>46</dim>
				</port>
			</output>
		</layer>
		<layer id="325" name="219" type="Const" version="opset1">
			<data element_type="f32" shape="128, 128, 7, 7" offset="143608976" size="3211264"/>
			<output>
				<port id="0" precision="FP32">
					<dim>128</dim>
					<dim>128</dim>
					<dim>7</dim>
					<dim>7</dim>
				</port>
			</output>
		</layer>
		<layer id="326" name="Mconv2_stage5_L1/WithoutBiases" type="Convolution" version="opset1">
			<data strides="1, 1" dilations="1, 1" pads_begin="3, 3" pads_end="3, 3" auto_pad="explicit"/>
			<input>
				<port id="0" precision="FP32">
					<dim>1</dim>
					<dim>128</dim>
					<dim>46</dim>
					<dim>46</dim>
				</port>
				<port id="1" precision="FP32">
					<dim>128</dim>
					<dim>128</dim>
					<dim>7</dim>
					<dim>7</dim>
				</port>
			</input>
			<output>
				<port id="2" precision="FP32">
					<dim>1</dim>
					<dim>128</dim>
					<dim>46</dim>
					<dim>46</dim>
				</port>
			</output>
		</layer>
		<layer id="327" name="Mconv2_stage5_L1/Dims3286" type="Const" version="opset1">
			<data element_type="f32" shape="1, 128, 1, 1" offset="146820240" size="512"/>
			<output>
				<port id="0" precision="FP32">
					<dim>1</dim>
					<dim>128</dim>
					<dim>1</dim>
					<dim>1</dim>
				</port>
			</output>
		</layer>
		<layer id="328" name="Mconv2_stage5_L1" type="Add" version="opset1">
			<data auto_broadcast="numpy"/>
			<input>
				<port id="0" precision="FP32">
					<dim>1</dim>
					<dim>128</dim>
					<dim>46</dim>
					<dim>46</dim>
				</port>
				<port id="1" precision="FP32">
					<dim>1</dim>
					<dim>128</dim>
					<dim>1</dim>
					<dim>1</dim>
				</port>
			</input>
			<output>
				<port id="2" precision="FP32" names="Mconv2_stage5_L1">
					<dim>1</dim>
					<dim>128</dim>
					<dim>46</dim>
					<dim>46</dim>
				</port>
			</output>
		</layer>
		<layer id="329" name="Mrelu2_stage5_L1" type="ReLU" version="opset1">
			<input>
				<port id="0" precision="FP32">
					<dim>1</dim>
					<dim>128</dim>
					<dim>46</dim>
					<dim>46</dim>
				</port>
			</input>
			<output>
				<port id="1" precision="FP32" names="Mconv2_stage5_L1">
					<dim>1</dim>
					<dim>128</dim>
					<dim>46</dim>
					<dim>46</dim>
				</port>
			</output>
		</layer>
		<layer id="330" name="307" type="Const" version="opset1">
			<data element_type="f32" shape="128, 128, 7, 7" offset="146820752" size="3211264"/>
			<output>
				<port id="0" precision="FP32">
					<dim>128</dim>
					<dim>128</dim>
					<dim>7</dim>
					<dim>7</dim>
				</port>
			</output>
		</layer>
		<layer id="331" name="Mconv3_stage5_L1/WithoutBiases" type="Convolution" version="opset1">
			<data strides="1, 1" dilations="1, 1" pads_begin="3, 3" pads_end="3, 3" auto_pad="explicit"/>
			<input>
				<port id="0" precision="FP32">
					<dim>1</dim>
					<dim>128</dim>
					<dim>46</dim>
					<dim>46</dim>
				</port>
				<port id="1" precision="FP32">
					<dim>128</dim>
					<dim>128</dim>
					<dim>7</dim>
					<dim>7</dim>
				</port>
			</input>
			<output>
				<port id="2" precision="FP32">
					<dim>1</dim>
					<dim>128</dim>
					<dim>46</dim>
					<dim>46</dim>
				</port>
			</output>
		</layer>
		<layer id="332" name="Mconv3_stage5_L1/Dims3454" type="Const" version="opset1">
			<data element_type="f32" shape="1, 128, 1, 1" offset="150032016" size="512"/>
			<output>
				<port id="0" precision="FP32">
					<dim>1</dim>
					<dim>128</dim>
					<dim>1</dim>
					<dim>1</dim>
				</port>
			</output>
		</layer>
		<layer id="333" name="Mconv3_stage5_L1" type="Add" version="opset1">
			<data auto_broadcast="numpy"/>
			<input>
				<port id="0" precision="FP32">
					<dim>1</dim>
					<dim>128</dim>
					<dim>46</dim>
					<dim>46</dim>
				</port>
				<port id="1" precision="FP32">
					<dim>1</dim>
					<dim>128</dim>
					<dim>1</dim>
					<dim>1</dim>
				</port>
			</input>
			<output>
				<port id="2" precision="FP32" names="Mconv3_stage5_L1">
					<dim>1</dim>
					<dim>128</dim>
					<dim>46</dim>
					<dim>46</dim>
				</port>
			</output>
		</layer>
		<layer id="334" name="Mrelu3_stage5_L1" type="ReLU" version="opset1">
			<input>
				<port id="0" precision="FP32">
					<dim>1</dim>
					<dim>128</dim>
					<dim>46</dim>
					<dim>46</dim>
				</port>
			</input>
			<output>
				<port id="1" precision="FP32" names="Mconv3_stage5_L1">
					<dim>1</dim>
					<dim>128</dim>
					<dim>46</dim>
					<dim>46</dim>
				</port>
			</output>
		</layer>
		<layer id="335" name="209" type="Const" version="opset1">
			<data element_type="f32" shape="128, 128, 7, 7" offset="150032528" size="3211264"/>
			<output>
				<port id="0" precision="FP32">
					<dim>128</dim>
					<dim>128</dim>
					<dim>7</dim>
					<dim>7</dim>
				</port>
			</output>
		</layer>
		<layer id="336" name="Mconv4_stage5_L1/WithoutBiases" type="Convolution" version="opset1">
			<data strides="1, 1" dilations="1, 1" pads_begin="3, 3" pads_end="3, 3" auto_pad="explicit"/>
			<input>
				<port id="0" precision="FP32">
					<dim>1</dim>
					<dim>128</dim>
					<dim>46</dim>
					<dim>46</dim>
				</port>
				<port id="1" precision="FP32">
					<dim>128</dim>
					<dim>128</dim>
					<dim>7</dim>
					<dim>7</dim>
				</port>
			</input>
			<output>
				<port id="2" precision="FP32">
					<dim>1</dim>
					<dim>128</dim>
					<dim>46</dim>
					<dim>46</dim>
				</port>
			</output>
		</layer>
		<layer id="337" name="Mconv4_stage5_L1/Dims3280" type="Const" version="opset1">
			<data element_type="f32" shape="1, 128, 1, 1" offset="153243792" size="512"/>
			<output>
				<port id="0" precision="FP32">
					<dim>1</dim>
					<dim>128</dim>
					<dim>1</dim>
					<dim>1</dim>
				</port>
			</output>
		</layer>
		<layer id="338" name="Mconv4_stage5_L1" type="Add" version="opset1">
			<data auto_broadcast="numpy"/>
			<input>
				<port id="0" precision="FP32">
					<dim>1</dim>
					<dim>128</dim>
					<dim>46</dim>
					<dim>46</dim>
				</port>
				<port id="1" precision="FP32">
					<dim>1</dim>
					<dim>128</dim>
					<dim>1</dim>
					<dim>1</dim>
				</port>
			</input>
			<output>
				<port id="2" precision="FP32" names="Mconv4_stage5_L1">
					<dim>1</dim>
					<dim>128</dim>
					<dim>46</dim>
					<dim>46</dim>
				</port>
			</output>
		</layer>
		<layer id="339" name="Mrelu4_stage5_L1" type="ReLU" version="opset1">
			<input>
				<port id="0" precision="FP32">
					<dim>1</dim>
					<dim>128</dim>
					<dim>46</dim>
					<dim>46</dim>
				</port>
			</input>
			<output>
				<port id="1" precision="FP32" names="Mconv4_stage5_L1">
					<dim>1</dim>
					<dim>128</dim>
					<dim>46</dim>
					<dim>46</dim>
…
				</port>
			</output>
		</layer>
		<layer id="382" name="Mconv6_stage5_L2" type="Add" version="opset1">
			<data auto_broadcast="numpy"/>
			<input>
				<port id="0" precision="FP32">
					<dim>1</dim>
					<dim>128</dim>
					<dim>46</dim>
					<dim>46</dim>
				</port>
				<port id="1" precision="FP32">
					<dim>1</dim>
					<dim>128</dim>
					<dim>1</dim>
					<dim>1</dim>
				</port>
			</input>
			<output>
				<port id="2" precision="FP32" names="Mconv6_stage5_L2">
					<dim>1</dim>
					<dim>128</dim>
					<dim>46</dim>
					<dim>46</dim>
				</port>
			</output>
		</layer>
		<layer id="383" name="Mrelu6_stage5_L2" type="ReLU" version="opset1">
			<input>
				<port id="0" precision="FP32">
					<dim>1</dim>
					<dim>128</dim>
					<dim>46</dim>
					<dim>46</dim>
				</port>
			</input>
			<output>
				<port id="1" precision="FP32" names="Mconv6_stage5_L2">
					<dim>1</dim>
					<dim>128</dim>
					<dim>46</dim>
					<dim>46</dim>
				</port>
			</output>
		</layer>
		<layer id="384" name="173" type="Const" version="opset1">
			<data element_type="f32" shape="19, 128, 1, 1" offset="174096680" size="9728"/>
			<output>
				<port id="0" precision="FP32">
					<dim>19</dim>
					<dim>128</dim>
					<dim>1</dim>
					<dim>1</dim>
				</port>
			</output>
		</layer>
		<layer id="385" name="Mconv7_stage5_L2/WithoutBiases" type="Convolution" version="opset1">
			<data strides="1, 1" dilations="1, 1" pads_begin="0, 0" pads_end="0, 0" auto_pad="explicit"/>
			<input>
				<port id="0" precision="FP32">
					<dim>1</dim>
					<dim>128</dim>
					<dim>46</dim>
					<dim>46</dim>
				</port>
				<port id="1" precision="FP32">
					<dim>19</dim>
					<dim>128</dim>
					<dim>1</dim>
					<dim>1</dim>
				</port>
			</input>
			<output>
				<port id="2" precision="FP32">
					<dim>1</dim>
					<dim>19</dim>
					<dim>46</dim>
					<dim>46</dim>
				</port>
			</output>
		</layer>
		<layer id="386" name="Mconv7_stage5_L2/Dims3388" type="Const" version="opset1">
			<data element_type="f32" shape="1, 19, 1, 1" offset="174106408" size="76"/>
			<output>
				<port id="0" precision="FP32">
					<dim>1</dim>
					<dim>19</dim>
					<dim>1</dim>
					<dim>1</dim>
				</port>
			</output>
		</layer>
		<layer id="387" name="Mconv7_stage5_L2" type="Add" version="opset1">
			<data auto_broadcast="numpy"/>
			<input>
				<port id="0" precision="FP32">
					<dim>1</dim>
					<dim>19</dim>
					<dim>46</dim>
					<dim>46</dim>
				</port>
				<port id="1" precision="FP32">
					<dim>1</dim>
					<dim>19</dim>
					<dim>1</dim>
					<dim>1</dim>
				</port>
			</input>
			<output>
				<port id="2" precision="FP32" names="Mconv7_stage5_L2">
					<dim>1</dim>
					<dim>19</dim>
					<dim>46</dim>
					<dim>46</dim>
				</port>
			</output>
		</layer>
		<layer id="388" name="concat_stage6" type="Concat" version="opset1">
			<data axis="1"/>
			<input>
				<port id="0" precision="FP32">
					<dim>1</dim>
					<dim>38</dim>
					<dim>46</dim>
					<dim>46</dim>
				</port>
				<port id="1" precision="FP32">
					<dim>1</dim>
					<dim>19</dim>
					<dim>46</dim>
					<dim>46</dim>
				</port>
				<port id="2" precision="FP32">
					<dim>1</dim>
					<dim>128</dim>
					<dim>46</dim>
					<dim>46</dim>
				</port>
			</input>
			<output>
				<port id="3" precision="FP32" names="concat_stage6">
					<dim>1</dim>
					<dim>185</dim>
					<dim>46</dim>
					<dim>46</dim>
				</port>
			</output>
		</layer>
		<layer id="389" name="261" type="Const" version="opset1">
			<data element_type="f32" shape="128, 185, 7, 7" offset="174106484" size="4641280"/>
			<output>
				<port id="0" precision="FP32">
					<dim>128</dim>
					<dim>185</dim>
					<dim>7</dim>
					<dim>7</dim>
				</port>
			</output>
		</layer>
		<layer id="390" name="Mconv1_stage6_L2/WithoutBiases" type="Convolution" version="opset1">
			<data strides="1, 1" dilations="1, 1" pads_begin="3, 3" pads_end="3, 3" auto_pad="explicit"/>
			<input>
				<port id="0" precision="FP32">
					<dim>1</dim>
					<dim>185</dim>
					<dim>46</dim>
					<dim>46</dim>
				</port>
				<port id="1" precision="FP32">
					<dim>128</dim>
					<dim>185</dim>
					<dim>7</dim>
					<dim>7</dim>
				</port>
			</input>
			<output>
				<port id="2" precision="FP32">
					<dim>1</dim>
					<dim>128</dim>
					<dim>46</dim>
					<dim>46</dim>
				</port>
			</output>
		</layer>
		<layer id="391" name="Mconv1_stage6_L2/Dims3172" type="Const" version="opset1">
			<data element_type="f32" shape="1, 128, 1, 1" offset="178747764" size="512"/>
			<output>
				<port id="0" precision="FP32">
					<dim>1</dim>
					<dim>128</dim>
					<dim>1</dim>
					<dim>1</dim>
				</port>
			</output>
		</layer>
		<layer id="392" name="Mconv1_stage6_L2" type="Add" version="opset1">
			<data auto_broadcast="numpy"/>
			<input>
				<port id="0" precision="FP32">
					<dim>1</dim>
					<dim>128</dim>
					<dim>46</dim>
					<dim>46</dim>
				</port>
				<port id="1" precision="FP32">
					<dim>1</dim>
					<dim>128</dim>
					<dim>1</dim>
					<dim>1</dim>
				</port>
			</input>
			<output>
				<port id="2" precision="FP32" names="Mconv1_stage6_L2">
					<dim>1</dim>
					<dim>128</dim>
					<dim>46</dim>
					<dim>46</dim>
				</port>
			</output>
		</layer>
		<layer id="393" name="Mrelu1_stage6_L2" type="ReLU" version="opset1">
			<input>
				<port id="0" precision="FP32">
					<dim>1</dim>
					<dim>128</dim>
					<dim>46</dim>
					<dim>46</dim>
				</port>
			</input>
			<output>
				<port id="1" precision="FP32" names="Mconv1_stage6_L2">
					<dim>1</dim>
					<dim>128</dim>
					<dim>46</dim>
					<dim>46</dim>
				</port>
			</output>
		</layer>
		<layer id="394" name="265" type="Const" version="opset1">
			<data element_type="f32" shape="128, 128, 7, 7" offset="178748276" size="3211264"/>
			<output>
				<port id="0" precision="FP32">
					<dim>128</dim>
					<dim>128</dim>
					<dim>7</dim>
					<dim>7</dim>
				</port>
			</output>
		</layer>
		<layer id="395" name="Mconv2_stage6_L2/WithoutBiases" type="Convolution" version="opset1">
			<data strides="1, 1" dilations="1, 1" pads_begin="3, 3" pads_end="3, 3" auto_pad="explicit"/>
			<input>
				<port id="0" precision="FP32">
					<dim>1</dim>
					<dim>128</dim>
					<dim>46</dim>
					<dim>46</dim>
				</port>
				<port id="1" precision="FP32">
					<dim>128</dim>
					<dim>128</dim>
					<dim>7</dim>
					<dim>7</dim>
				</port>
			</input>
			<output>
				<port id="2" precision="FP32">
					<dim>1</dim>
					<dim>128</dim>
					<dim>46</dim>
					<dim>46</dim>
				</port>
			</output>
		</layer>
		<layer id="396" name="Mconv2_stage6_L2/Dims3520" type="Const" version="opset1">
			<data element_type="f32" shape="1, 128, 1, 1" offset="181959540" size="512"/>
			<output>
				<port id="0" precision="FP32">
					<dim>1</dim>
					<dim>128</dim>
					<dim>1</dim>
					<dim>1</dim>
				</port>
			</output>
		</layer>
		<layer id="397" name="Mconv2_stage6_L2" type="Add" version="opset1">
			<data auto_broadcast="numpy"/>
			<input>
				<port id="0" precision="FP32">
					<dim>1</dim>
					<dim>128</dim>
					<dim>46</dim>
					<dim>46</dim>
				</port>
				<port id="1" precision="FP32">
					<dim>1</dim>
					<dim>128</dim>
					<dim>1</dim>
					<dim>1</dim>
				</port>
			</input>
			<output>
				<port id="2" precision="FP32" names="Mconv2_stage6_L2">
					<dim>1</dim>
					<dim>128</dim>
					<dim>46</dim>
					<dim>46</dim>
				</port>
			</output>
		</layer>
		<layer id="398" name="Mrelu2_stage6_L2" type="ReLU" version="opset1">
			<input>
				<port id="0" precision="FP32">
					<dim>1</dim>
					<dim>128</dim>
					<dim>46</dim>
					<dim>46</dim>
				</port>
			</input>
			<output>
				<port id="1" precision="FP32" names="Mconv2_stage6_L2">
					<dim>1</dim>
					<dim>128</dim>
					<dim>46</dim>
					<dim>46</dim>
				</port>
			</output>
		</layer>
		<layer id="399" name="339" type="Const" version="opset1">
			<data element_type="f32" shape="128, 128, 7, 7" offset="181960052" size="3211264"/>
			<output>
				<port id="0" precision="FP32">
					<dim>128</dim>
					<dim>128</dim>
					<dim>7</dim>
					<dim>7</dim>
				</port>
			</output>
		</layer>
		<layer id="400" name="Mconv3_stage6_L2/WithoutBiases" type="Convolution" version="opset1">
			<data strides="1, 1" dilations="1, 1" pads_begin="3, 3" pads_end="3, 3" auto_pad="explicit"/>
			<input>
				<port id="0" precision="FP32">
					<dim>1</dim>
					<dim>128</dim>
					<dim>46</dim>
					<dim>46</dim>
				</port>
				<port id="1" precision="FP32">
					<dim>128</dim>
					<dim>128</dim>
					<dim>7</dim>
					<dim>7</dim>
				</port>
			</input>
			<output>
				<port id="2" precision="FP32">
					<dim>1</dim>
					<dim>128</dim>
					<dim>46</dim>
					<dim>46</dim>
				</port>
			</output>
		</layer>
		<layer id="401" name="Mconv3_stage6_L2/Dims3250" type="Const" version="opset1">
			<data element_type="f32" shape="1, 128, 1, 1" offset="185171316" size="512"/>
			<output>
				<port id="0" precision="FP32">
					<dim>1</dim>
					<dim>128</dim>
					<dim>1</dim>
					<dim>1</dim>
				</port>
			</output>
		</layer>
		<layer id="402" name="Mconv3_stage6_L2" type="Add" version="opset1">
			<data auto_broadcast="numpy"/>
			<input>
				<port id="0" precision="FP32">
					<dim>1</dim>
					<dim>128</dim>
					<dim>46</dim>
					<dim>46</dim>
				</port>
				<port id="1" precision="FP32">
					<dim>1</dim>
					<dim>128</dim>
					<dim>1</dim>
					<dim>1</dim>
				</port>
			</input>
			<output>
				<port id="2" precision="FP32" names="Mconv3_stage6_L2">
					<dim>1</dim>
					<dim>128</dim>
					<dim>46</dim>
					<dim>46</dim>
				</port>
			</output>
		</layer>
		<layer id="403" name="Mrelu3_stage6_L2" type="ReLU" version="opset1">
			<input>
				<port id="0" precision="FP32">
					<dim>1</dim>
					<dim>128</dim>
					<dim>46</dim>
					<dim>46</dim>
				</port>
			</input>
			<output>
				<port id="1" precision="FP32" names="Mconv3_stage6_L2">
					<dim>1</dim>
					<dim>128</dim>
					<dim>46</dim>
					<dim>46</dim>
				</port>
			</output>
		</layer>
		<layer id="404" name="303" type="Const" version="opset1">
			<data element_type="f32" shape="128, 128, 7, 7" offset="185171828" size="3211264"/>
			<output>
				<port id="0" precision="FP32">
					<dim>128</dim>
					<dim>128</dim>
					<dim>7</dim>
					<dim>7</dim>
				</port>
			</output>
		</layer>
		<layer id="405" name="Mconv4_stage6_L2/WithoutBiases" type="Convolution" version="opset1">
			<data strides="1, 1" dilations="1, 1" pads_begin="3, 3" pads_end="3, 3" auto_pad="explicit"/>
			<input>
				<port id="0" precision="FP32">
					<dim>1</dim>
					<dim>128</dim>
					<dim>46</dim>
					<dim>46</dim>
				</port>
				<port id="1" precision="FP32">
					<dim>128</dim>
					<dim>128</dim>
					<dim>7</dim>
					<dim>7</dim>
				</port>
			</input>
			<output>
				<port id="2" precision="FP32">
					<dim>1</dim>
					<dim>128</dim>
					<dim>46</dim>
					<dim>46</dim>
				</port>
			</output>
		</layer>
		<layer id="406" name="Mconv4_stage6_L2/Dims3358" type="Const" version="opset1">
			<data element_type="f32" shape="1, 128, 1, 1" offset="188383092" size="512"/>
			<output>
				<port id="0" precision="FP32">
					<dim>1</dim>
					<dim>128</dim>
					<dim>1</dim>
					<dim>1</dim>
				</port>
			</output>
		</layer>
		<layer id="407" name="Mconv4_stage6_L2" type="Add" version="opset1">
			<data auto_broadcast="numpy"/>
			<input>
				<port id="0" precision="FP32">
					<dim>1</dim>
					<dim>128</dim>
					<dim>46</dim>
					<dim>46</dim>
				</port>
				<port id="1" precision="FP32">
					<dim>1</dim>
					<dim>128</dim>
					<dim>1</dim>
					<dim>1</dim>
				</port>
			</input>
			<output>
				<port id="2" precision="FP32" names="Mconv4_stage6_L2">
					<dim>1</dim>
					<dim>128</dim>
					<dim>46</dim>
					<dim>46</dim>
				</port>
			</output>
		</layer>
		<layer id="408" name="Mrelu4_stage6_L2" type="ReLU" version="opset1">
			<input>
				<port id="0" precision="FP32">
					<dim>1</dim>
					<dim>128</dim>
					<dim>46</dim>
					<dim>46</dim>
				</port>
			</input>
			<output>
				<port id="1" precision="FP32" names="Mconv4_stage6_L2">
					<dim>1</dim>
					<dim>128</dim>
					<dim>46</dim>
					<dim>46</dim>
				</port>
			</output>
		</layer>
		<layer id="409" name="233" type="Const" version="opset1">
			<data element_type="f32" shape="128, 128, 7, 7" offset="188383604" size="3211264"/>
			<output>
				<port id="0" precision="FP32">
					<dim>128</dim>
					<dim>128</dim>
					<dim>7</dim>
					<dim>7</dim>
				</port>
			</output>
		</layer>
		<layer id="410" name="Mconv5_stage6_L2/WithoutBiases" type="Convolution" version="opset1">
			<data strides="1, 1" dilations="1, 1" pads_begin="3, 3" pads_end="3, 3" auto_pad="explicit"/>
			<input>
				<port id="0" precision="FP32">
					<dim>1</dim>
					<dim>128</dim>
					<dim>46</dim>
					<dim>46</dim>
				</port>
				<port id="1" precision="FP32">
					<dim>128</dim>
					<dim>128</dim>
					<dim>7</dim>
					<dim>7</dim>
				</port>
			</input>
			<output>
				<port id="2" precision="FP32">
					<dim>1</dim>
					<dim>128</dim>
					<dim>46</dim>
					<dim>46</dim>
				</port>
			</output>
		</layer>
		<layer id="411" name="Mconv5_stage6_L2/Dims3496" type="Const" version="opset1">
			<data element_type="f32" shape="1, 128, 1, 1" offset="191594868" size="512"/>
			<output>
				<port id="0" precision="FP32">
					<dim>1</dim>
					<dim>128</dim>
					<dim>1</dim>
					<dim>1</dim>
				</port>
			</output>
		</layer>
		<layer id="412" name="Mconv5_stage6_L2" type="Add" version="opset1">
			<data auto_broadcast="numpy"/>
			<input>
				<port id="0" precision="FP32">
					<dim>1</dim>
					<dim>128</dim>
					<dim>46</dim>
					<dim>46</dim>
				</port>
				<port id="1" precision="FP32">
					<dim>1</dim>
					<dim>128</dim>
					<dim>1</dim>
					<dim>1</dim>
				</port>
			</input>
			<output>
				<port id="2" precision="FP32" names="Mconv5_stage6_L2">
					<dim>1</dim>
					<dim>128</dim>
					<dim>46</dim>
					<dim>46</dim>
				</port>
			</output>
		</layer>
		<layer id="413" name="Mrelu5_stage6_L2" type="ReLU" version="opset1">
			<input>
				<port id="0" precision="FP32">
					<dim>1</dim>
					<dim>128</dim>
					<dim>46</dim>
					<dim>46</dim>
				</port>
			</input>
			<output>
				<port id="1" precision="FP32" names="Mconv5_stage6_L2">
					<dim>1</dim>
					<dim>128</dim>
					<dim>46</dim>
					<dim>46</dim>
				</port>
			</output>
		</layer>
		<layer id="414" name="179" type="Const" version="opset1">
			<data element_type="f32" shape="128, 128, 1, 1" offset="191595380" size="65536"/>
			<output>
				<port id="0" precision="FP32">
					<dim>128</dim>
					<dim>128</dim>
					<dim>1</dim>
					<dim>1</dim>
				</port>
			</output>
		</layer>
		<layer id="415" name="Mconv6_stage6_L2/WithoutBiases" type="Convolution" version="opset1">
			<data strides="1, 1" dilations="1, 1" pads_begin="0, 0" pads_end="0, 0" auto_pad="explicit"/>
			<input>
				<port id="0" precision="FP32">
					<dim>1</dim>
					<dim>128</dim>
					<dim>46</dim>
					<dim>46</dim>
				</port>
				<port id="1" precision="FP32">
					<dim>128</dim>
					<dim>128</dim>
					<dim>1</dim>
					<dim>1</dim>
				</port>
			</input>
			<output>
				<port id="2" precision="FP32">
					<dim>1</dim>
					<dim>128</dim>
					<dim>46</dim>
					<dim>46</dim>
				</port>
			</output>
		</layer>
		<layer id="416" name="Mconv6_stage6_L2/Dims3070" type="Const" version="opset1">
			<data element_type="f32" shape="1, 128, 1, 1" offset="191660916" size="512"/>
			<output>
				<port id="0" precision="FP32">
					<dim>1</dim>
					<dim>128</dim>
					<dim>1</dim>
					<dim>1</dim>
				</port>
			</output>
		</layer>
		<layer id="417" name="Mconv6_stage6_L2" type="Add" version="opset1">
			<data auto_broadcast="numpy"/>
			<input>
				<port id="0" precision="FP32">
					<dim>1</dim>
					<dim>128</dim>
					<dim>46</dim>
					<dim>46</dim>
				</port>
				<port id="1" precision="FP32">
					<dim>1</dim>
					<dim>128</dim>
					<dim>1</dim>
					<dim>1</dim>
				</port>
			</input>
			<output>
				<port id="2" precision="FP32" names="Mconv6_stage6_L2">
					<dim>1</dim>
					<dim>128</dim>
					<dim>46</dim>
					<dim>46</dim>
				</port>
			</output>
		</layer>
		<layer id="418" name="Mrelu6_stage6_L2" type="ReLU" version="opset1">
			<input>
				<port id="0" precision="FP32">
					<dim>1</dim>
					<dim>128</dim>
					<dim>46</dim>
					<dim>46</dim>
				</port>
			</input>
			<output>
				<port id="1" precision="FP32" names="Mconv6_stage6_L2">
					<dim>1</dim>
					<dim>128</dim>
					<dim>46</dim>
					<dim>46</dim>
				</port>
			</output>
		</layer>
		<layer id="419" name="295" type="Const" version="opset1">
			<data element_type="f32" shape="19, 128, 1, 1" offset="191661428" size="9728"/>
			<output>
				<port id="0" precision="FP32">
					<dim>19</dim>
					<dim>128</dim>
					<dim>1</dim>
					<dim>1</dim>
				</port>
			</output>
		</layer>
		<layer id="420" name="Mconv7_stage6_L2/WithoutBiases" type="Convolution" version="opset1">
			<data strides="1, 1" dilations="1, 1" pads_begin="0, 0" pads_end="0, 0" auto_pad="explicit"/>
			<input>
				<port id="0" precision="FP32">
					<dim>1</dim>
					<dim>128</dim>
					<dim>46</dim>
					<dim>46</dim>
				</port>
				<port id="1" precision="FP32">
					<dim>19</dim>
					<dim>128</dim>
					<dim>1</dim>
					<dim>1</dim>
				</port>
			</input>
			<output>
				<port id="2" precision="FP32">
					<dim>1</dim>
					<dim>19</dim>
					<dim>46</dim>
					<dim>46</dim>
				</port>
			</output>
		</layer>
		<layer id="421" name="Mconv7_stage6_L2/Dims3346" type="Const" version="opset1">
			<data element_type="f32" shape="1, 19, 1, 1" offset="191671156" size="76"/>
			<output>
				<port id="0" precision="FP32">
					<dim>1</dim>
					<dim>19</dim>
					<dim>1</dim>
					<dim>1</dim>
				</port>
			</output>
		</layer>
		<layer id="422" name="Mconv7_stage6_L2" type="Add" version="opset1">
			<data auto_broadcast="numpy"/>
			<input>
				<port id="0" precision="FP32">
					<dim>1</dim>
					<dim>19</dim>
					<dim>46</dim>
					<dim>46</dim>
				</port>
				<port id="1" precision="FP32">
					<dim>1</dim>
					<dim>19</dim>
					<dim>1</dim>
					<dim>1</dim>
				</port>
			</input>
			<output>
				<port id="2" precision="FP32" names="Mconv7_stage6_L2">
					<dim>1</dim>
					<dim>19</dim>
					<dim>46</dim>
					<dim>46</dim>
				</port>
			</output>
		</layer>
		<layer id="423" name="Mconv7_stage6_L2/sink_port_0" type="Result" version="opset1">
			<input>
				<port id="0" precision="FP32">
					<dim>1</dim>
					<dim>19</dim>
					<dim>46</dim>
					<dim>46</dim>
				</port>
			</input>
		</layer>
	</layers>
	<edges>
		<edge from-layer="0" from-port="0" to-layer="2" to-port="0"/>
		<edge from-layer="1" from-port="0" to-layer="2" to-port="1"/>
		<edge from-layer="2" from-port="2" to-layer="4" to-port="0"/>
		<edge from-layer="3" from-port="0" to-layer="4" to-port="1"/>
		<edge from-layer="4" from-port="2" to-layer="5" to-port="0"/>
		<edge from-layer="5" from-port="1" to-layer="7" to-port="0"/>
		<edge from-layer="6" from-port="0" to-layer="7" to-port="1"/>
		<edge from-layer="7" from-port="2" to-layer="9" to-port="0"/>
		<edge from-layer="8" from-port="0" to-layer="9" to-port="1"/>
		<edge from-layer="9" from-port="2" to-layer="10" to-port="0"/>
		<edge from-layer="10" from-port="1" to-layer="11" to-port="0"/>
		<edge from-layer="11" from-port="1" to-layer="13" to-port="0"/>
		<edge from-layer="12" from-port="0" to-layer="13" to-port="1"/>
		<edge from-layer="13" from-port="2" to-layer="15" to-port="0"/>
		<edge from-layer="14" from-port="0" to-layer="15" to-port="1"/>
		<edge from-layer="15" from-port="2" to-layer="16" to-port="0"/>
		<edge from-layer="16" from-port="1" to-layer="18" to-port="0"/>
		<edge from-layer="17" from-port="0" to-layer="18" to-port="1"/>
		<edge from-layer="18" from-port="2" to-layer="20" to-port="0"/>
		<edge from-layer="19" from-port="0" to-layer="20" to-port="1"/>
		<edge from-layer="20" from-port="2" to-layer="21" to-port="0"/>
		<edge from-layer="21" from-port="1" to-layer="22" to-port="0"/>
		<edge from-layer="22" from-port="1" to-layer="24" to-port="0"/>
		<edge from-layer="23" from-port="0" to-layer="24" to-port="1"/>
		<edge from-layer="24" from-port="2" to-layer="26" to-port="0"/>
		<edge from-layer="25" from-port="0" to-layer="26" to-port="1"/>
		<edge from-layer="26" from-port="2" to-layer="27" to-port="0"/>
		<edge from-layer="27" from-port="1" to-layer="29" to-port="0"/>
		<edge from-layer="28" from-port="0" to-layer="29" to-port="1"/>
		<edge from-layer="29" from-port="2" to-layer="31" to-port="0"/>
		<edge from-layer="30" from-port="0" to-layer="31" to-port="1"/>
		<edge from-layer="31" from-port="2" to-layer="32" to-port="0"/>
		<edge from-layer="32" from-port="1" to-layer="34" to-port="0"/>
		<edge from-layer="33" from-port="0" to-layer="34" to-port="1"/>
		<edge from-layer="34" from-port="2" to-layer="36" to-port="0"/>
		<edge from-layer="35" from-port="0" to-layer="36" to-port="1"/>
		<edge from-layer="36" from-port="2" to-layer="37" to-port="0"/>
		<edge from-layer="37" from-port="1" to-layer="39" to-port="0"/>
		<edge from-layer="38" from-port="0" to-layer="39" to-port="1"/>
		<edge from-layer="39" from-port="2" to-layer="41" to-port="0"/>
		<edge from-layer="40" from-port="0" to-layer="41" to-port="1"/>
		<edge from-layer="41" from-port="2" to-layer="42" to-port="0"/>
		<edge from-layer="42" from-port="1" to-layer="43" to-port="0"/>
		<edge from-layer="43" from-port="1" to-layer="45" to-port="0"/>
		<edge from-layer="44" from-port="0" to-layer="45" to-port="1"/>
		<edge from-layer="45" from-port="2" to-layer="47" to-port="0"/>
		<edge from-layer="46" from-port="0" to-layer="47" to-port="1"/>
		<edge from-layer="47" from-port="2" to-layer="48" to-port="0"/>
		<edge from-layer="48" from-port="1" to-layer="50" to-port="0"/>
		<edge from-layer="49" from-port="0" to-layer="50" to-port="1"/>
		<edge from-layer="50" from-port="2" to-layer="52" to-port="0"/>
		<edge from-layer="51" from-port="0" to-layer="52" to-port="1"/>
		<edge from-layer="52" from-port="2" to-layer="53" to-port="0"/>
		<edge from-layer="53" from-port="1" to-layer="55" to-port="0"/>
		<edge from-layer="54" from-port="0" to-layer="55" to-port="1"/>
		<edge from-layer="55" from-port="2" to-layer="57" to-port="0"/>
		<edge from-layer="56" from-port="0" to-layer="57" to-port="1"/>
		<edge from-layer="57" from-port="2" to-layer="58" to-port="0"/>
		<edge from-layer="58" from-port="1" to-layer="60" to-port="0"/>
		<edge from-layer="59" from-port="0" to-layer="60" to-port="1"/>
		<edge from-layer="60" from-port="2" to-layer="62" to-port="0"/>
		<edge from-layer="61" from-port="0" to-layer="62" to-port="1"/>
		<edge from-layer="62" from-port="2" to-layer="63" to-port="0"/>
		<edge from-layer="63" from-port="1" to-layer="65" to-port="0"/>
		<edge from-layer="63" from-port="1" to-layer="89" to-port="0"/>
		<edge from-layer="63" from-port="1" to-layer="319" to-port="2"/>
		<edge from-layer="63" from-port="1" to-layer="250" to-port="2"/>
		<edge from-layer="63" from-port="1" to-layer="181" to-port="2"/>
		<edge from-layer="63" from-port="1" to-layer="388" to-port="2"/>
		<edge from-layer="63" from-port="1" to-layer="112" to-port="2"/>
		<edge from-layer="64" from-port="0" to-layer="65" to-port="1"/>
		<edge from-layer="65" from-port="2" to-layer="67" to-port="0"/>
		<edge from-layer="66" from-port="0" to-layer="67" to-port="1"/>
		<edge from-layer="67" from-port="2" to-layer="68" to-port="0"/>
		<edge from-layer="68" from-port="1" to-layer="70" to-port="0"/>
		<edge from-layer="69" from-port="0" to-layer="70" to-port="1"/>
		<edge from-layer="70" from-port="2" to-layer="72" to-port="0"/>
		<edge from-layer="71" from-port="0" to-layer="72" to-port="1"/>
		<edge from-layer="72" from-port="2" to-layer="73" to-port="0"/>
		<edge from-layer="73" from-port="1" to-layer="75" to-port="0"/>
		<edge from-layer="74" from-port="0" to-layer="75" to-port="1"/>
		<edge from-layer="75" from-port="2" to-layer="77" to-port="0"/>
		<edge from-layer="76" from-port="0" to-layer="77" to-port="1"/>
		<edge from-layer="77" from-port="2" to-layer="78" to-port="0"/>
		<edge from-layer="78" from-port="1" to-layer="80" to-port="0"/>
		<edge from-layer="79" from-port="0" to-layer="80" to-port="1"/>
		<edge from-layer="80" from-port="2" to-layer="82" to-port="0"/>
		<edge from-layer="81" from-port="0" to-layer="82" to-port="1"/>
		<edge from-layer="82" from-port="2" to-layer="83" to-port="0"/>
		<edge from-layer="83" from-port="1" to-layer="85" to-port="0"/>
		<edge from-layer="84" from-port="0" to-layer="85" to-port="1"/>
		<edge from-layer="85" from-port="2" to-layer="87" to-port="0"/>
		<edge from-layer="86" from-port="0" to-layer="87" to-port="1"/>
		<edge from-layer="87" from-port="2" to-layer="112" to-port="0"/>
		<edge from-layer="88" from-port="0" to-layer="89" to-port="1"/>
		<edge from-layer="89" from-port="2" to-layer="91" to-port="0"/>
		<edge from-layer="90" from-port="0" to-layer="91" to-port="1"/>
		<edge from-layer="91" from-port="2" to-layer="92" to-port="0"/>
		<edge from-layer="92" from-port="1" to-layer="94" to-port="0"/>
		<edge from-layer="93" from-port="0" to-layer="94" to-port="1"/>
		<edge from-layer="94" from-port="2" to-layer="96" to-port="0"/>
		<edge from-layer="95" from-port="0" to-layer="96" to-port="1"/>
		<edge from-layer="96" from-port="2" to-layer="97" to-port="0"/>
		<edge from-layer="97" from-port="1" to-layer="99" to-port="0"/>
		<edge from-layer="98" from-port="0" to-layer="99" to-port="1"/>
		<edge from-layer="99" from-port="2" to-layer="101" to-port="0"/>
		<edge from-layer="100" from-port="0" to-layer="101" to-port="1"/>
		<edge from-layer="101" from-port="2" to-layer="102" to-port="0"/>
		<edge from-layer="102" from-port="1" to-layer="104" to-port="0"/>
		<edge from-layer="103" from-port="0" to-layer="104" to-port="1"/>
		<edge from-layer="104" from-port="2" to-layer="106" to-port="0"/>
		<edge from-layer="105" from-port="0" to-layer="106" to-port="1"/>
		<edge from-layer="106" from-port="2" to-layer="107" to-port="0"/>
		<edge from-layer="107" from-port="1" to-layer="109" to-port="0"/>
		<edge from-layer="108" from-port="0" to-layer="109" to-port="1"/>
		<edge from-layer="109" from-port="2" to-layer="111" to-port="0"/>
		<edge from-layer="110" from-port="0" to-layer="111" to-port="1"/>
		<edge from-layer="111" from-port="2" to-layer="112" to-port="1"/>
		<edge from-layer="112" from-port="3" to-layer="114" to-port="0"/>
		<edge from-layer="112" from-port="3" to-layer="148" to-port="0"/>
		<edge from-layer="113" from-port="0" to-layer="114" to-port="1"/>
		<edge from-layer="114" from-port="2" to-layer="116" to-port="0"/>
		<edge from-layer="115" from-port="0" to-layer="116" to-port="1"/>
		<edge from-layer="116" from-port="2" to-layer="117" to-port="0"/>
		<edge from-layer="117" from-port="1" to-layer="119" to-port="0"/>
		<edge from-layer="118" from-port="0" to-layer="119" to-port="1"/>
		<edge from-layer="119" from-port="2" to-layer="121" to-port="0"/>
		<edge from-layer="120" from-port="0" to-layer="121" to-port="1"/>
		<edge from-layer="121" from-port="2" to-layer="122" to-port="0"/>
		<edge from-layer="122" from-port="1" to-layer="124" to-port="0"/>
		<edge from-layer="123" from-port="0" to-layer="124" to-port="1"/>
		<edge from-layer="124" from-port="2" to-layer="126" to-port="0"/>
		<edge from-layer="125" from-port="0" to-layer="126" to-port="1"/>
		<edge from-layer="126" from-port="2" to-layer="127" to-port="0"/>
		<edge from-layer="127" from-port="1" to-layer="129" to-port="0"/>
		<edge from-layer="128" from-port="0" to-layer="129" to-port="1"/>
		<edge from-layer="129" from-port="2" to-layer="131" to-port="0"/>
		<edge from-layer="130" from-port="0" to-layer="131" to-port="1"/>
		<edge from-layer="131" from-port="2" to-layer="132" to-port="0"/>
		<edge from-layer="132" from-port="1" to-layer="134" to-port="0"/>
		<edge from-layer="133" from-port="0" to-layer="134" to-port="1"/>
		<edge from-layer="134" from-port="2" to-layer="136" to-port="0"/>
		<edge from-layer="135" from-port="0" to-layer="136" to-port="1"/>
		<edge from-layer="136" from-port="2" to-layer="137" to-port="0"/>
		<edge from-layer="137" from-port="1" to-layer="139" to-port="0"/>
		<edge from-layer="138" from-port="0" to-layer="139" to-port="1"/>
		<edge from-layer="139" from-port="2" to-layer="141" to-port="0"/>
		<edge from-layer="140" from-port="0" to-layer="141" to-port="1"/>
		<edge from-layer="141" from-port="2" to-layer="142" to-port="0"/>
		<edge from-layer="142" from-port="1" to-layer="144" to-port="0"/>
		<edge from-layer="143" from-port="0" to-layer="144" to-port="1"/>
		<edge from-layer="144" from-port="2" to-layer="146" to-port="0"/>
		<edge from-layer="145" from-port="0" to-layer="146" to-port="1"/>
		<edge from-layer="146" from-port="2" to-layer="181" to-port="0"/>
		<edge from-layer="147" from-port="0" to-layer="148" to-port="1"/>
		<edge from-layer="148" from-port="2" to-layer="150" to-port="0"/>
		<edge from-layer="149" from-port="0" to-layer="150" to-port="1"/>
		<edge from-layer="150" from-port="2" to-layer="151" to-port="0"/>
		<edge from-layer="151" from-port="1" to-layer="153" to-port="0"/>
		<edge from-layer="152" from-port="0" to-layer="153" to-port="1"/>
		<edge from-layer="153" from-port="2" to-layer="155" to-port="0"/>
		<edge from-layer="154" from-port="0" to-layer="155" to-port="1"/>
		<edge from-layer="155" from-port="2" to-layer="156" to-port="0"/>
		<edge from-layer="156" from-port="1" to-layer="158" to-port="0"/>
		<edge from-layer="157" from-port="0" to-layer="158" to-port="1"/>
		<edge from-layer="158" from-port="2" to-layer="160" to-port="0"/>
		<edge from-layer="159" from-port="0" to-layer="160" to-port="1"/>
		<edge from-layer="160" from-port="2" to-layer="161" to-port="0"/>
		<edge from-layer="161" from-port="1" to-layer="163" to-port="0"/>
		<edge from-layer="162" from-port="0" to-layer="163" to-port="1"/>
		<edge from-layer="163" from-port="2" to-layer="165" to-port="0"/>
		<edge from-layer="164" from-port="0" to-layer="165" to-port="1"/>
		<edge from-layer="165" from-port="2" to-layer="166" to-port="0"/>
		<edge from-layer="166" from-port="1" to-layer="168" to-port="0"/>
		<edge from-layer="167" from-port="0" to-layer="168" to-port="1"/>
		<edge from-layer="168" from-port="2" to-layer="170" to-port="0"/>
		<edge from-layer="169" from-port="0" to-layer="170" to-port="1"/>
		<edge from-layer="170" from-port="2" to-layer="171" to-port="0"/>
		<edge from-layer="171" from-port="1" to-layer="173" to-port="0"/>
		<edge from-layer="172" from-port="0" to-layer="173" to-port="1"/>
		<edge from-layer="173" from-port="2" to-layer="175" to-port="0"/>
		<edge from-layer="174" from-port="0" to-layer="175" to-port="1"/>
		<edge from-layer="175" from-port="2" to-layer="176" to-port="0"/>
		<edge from-layer="176" from-port="1" to-layer="178" to-port="0"/>
		<edge from-layer="177" from-port="0" to-layer="178" to-port="1"/>
		<edge from-layer="178" from-port="2" to-layer="180" to-port="0"/>
		<edge from-layer="179" from-port="0" to-layer="180" to-port="1"/>
		<edge from-layer="180" from-port="2" to-layer="181" to-port="1"/>
		<edge from-layer="181" from-port="3" to-layer="183" to-port="0"/>
		<edge from-layer="181" from-port="3" to-layer="217" to-port="0"/>
		<edge from-layer="182" from-port="0" to-layer="183" to-port="1"/>
		<edge from-layer="183" from-port="2" to-layer="185" to-port="0"/>
		<edge from-layer="184" from-port="0" to-layer="185" to-port="1"/>
		<edge from-layer="185" from-port="2" to-layer="186" to-port="0"/>
		<edge from-layer="186" from-port="1" to-layer="188" to-port="0"/>
		<edge from-layer="187" from-port="0" to-layer="188" to-port="1"/>
		<edge from-layer="188" from-port="2" to-layer="190" to-port="0"/>
		<edge from-layer="189" from-port="0" to-layer="190" to-port="1"/>
		<edge from-layer="190" from-port="2" to-layer="191" to-port="0"/>
		<edge from-layer="191" from-port="1" to-layer="193" to-port="0"/>
		<edge from-layer="192" from-port="0" to-layer="193" to-port="1"/>
		<edge from-layer="193" from-port="2" to-layer="195" to-port="0"/>
		<edge from-layer="194" from-port="0" to-layer="195" to-port="1"/>
		<edge from-layer="195" from-port="2" to-layer="196" to-port="0"/>
		<edge from-layer="196" from-port="1" to-layer="198" to-port="0"/>
		<edge from-layer="197" from-port="0" to-layer="198" to-port="1"/>
		<edge from-layer="198" from-port="2" to-layer="200" to-port="0"/>
		<edge from-layer="199" from-port="0" to-layer="200" to-port="1"/>
		<edge from-layer="200" from-port="2" to-layer="201" to-port="0"/>
		<edge from-layer="201" from-port="1" to-layer="203" to-port="0"/>
		<edge from-layer="202" from-port="0" to-layer="203" to-port="1"/>
		<edge from-layer="203" from-port="2" to-layer="205" to-port="0"/>
		<edge from-layer="204" from-port="0" to-layer="205" to-port="1"/>
		<edge from-layer="205" from-port="2" to-layer="206" to-port="0"/>
		<edge from-layer="206" from-port="1" to-layer="208" to-port="0"/>
		<edge from-layer="207" from-port="0" to-layer="208" to-port="1"/>
		<edge from-layer="208" from-port="2" to-layer="210" to-port="0"/>
		<edge from-layer="209" from-port="0" to-layer="210" to-port="1"/>
		<edge from-layer="210" from-port="2" to-layer="211" to-port="0"/>
		<edge from-layer="211" from-port="1" to-layer="213" to-port="0"/>
		<edge from-layer="212" from-port="0" to-layer="213" to-port="1"/>
		<edge from-layer="213" from-port="2" to-layer="215" to-port="0"/>
		<edge from-layer="214" from-port="0" to-layer="215" to-port="1"/>
		<edge from-layer="215" from-port="2" to-layer="250" to-port="0"/>
		<edge from-layer="216" from-port="0" to-layer="217" to-port="1"/>
		<edge from-layer="217" from-port="2" to-layer="219" to-port="0"/>
		<edge from-layer="218" from-port="0" to-layer="219" to-port="1"/>
		<edge from-layer="219" from-port="2" to-layer="220" to-port="0"/>
		<edge from-layer="220" from-port="1" to-layer="222" to-port="0"/>
		<edge from-layer="221" from-port="0" to-layer="222" to-port="1"/>
		<edge from-layer="222" from-port="2" to-layer="224" to-port="0"/>
		<edge from-layer="223" from-port="0" to-layer="224" to-port="1"/>
		<edge from-layer="224" from-port="2" to-layer="225" to-port="0"/>
		<edge from-layer="225" from-port="1" to-layer="227" to-port="0"/>
		<edge from-layer="226" from-port="0" to-layer="227" to-port="1"/>
		<edge from-layer="227" from-port="2" to-layer="229" to-port="0"/>
		<edge from-layer="228" from-port="0" to-layer="229" to-port="1"/>
		<edge from-layer="229" from-port="2" to-layer="230" to-port="0"/>
		<edge from-layer="230" from-port="1" to-layer="232" to-port="0"/>
		<edge from-layer="231" from-port="0" to-layer="232" to-port="1"/>
		<edge from-layer="232" from-port="2" to-layer="234" to-port="0"/>
		<edge from-layer="233" from-port="0" to-layer="234" to-port="1"/>
		<edge from-layer="234" from-port="2" to-layer="235" to-port="0"/>
		<edge from-layer="235" from-port="1" to-layer="237" to-port="0"/>
		<edge from-layer="236" from-port="0" to-layer="237" to-port="1"/>
		<edge from-layer="237" from-port="2" to-layer="239" to-port="0"/>
		<edge from-layer="238" from-port="0" to-layer="239" to-port="1"/>
		<edge from-layer="239" from-port="2" to-layer="240" to-port="0"/>
		<edge from-layer="240" from-port="1" to-layer="242" to-port="0"/>
		<edge from-layer="241" from-port="0" to-layer="242" to-port="1"/>
		<edge from-layer="242" from-port="2" to-layer="244" to-port="0"/>
		<edge from-layer="243" from-port="0" to-layer="244" to-port="1"/>
		<edge from-layer="244" from-port="2" to-layer="245" to-port="0"/>
		<edge from-layer="245" from-port="1" to-layer="247" to-port="0"/>
		<edge from-layer="246" from-port="0" to-layer="247" to-port="1"/>
		<edge from-layer="247" from-port="2" to-layer="249" to-port="0"/>
		<edge from-layer="248" from-port="0" to-layer="249" to-port="1"/>
		<edge from-layer="249" from-port="2" to-layer="250" to-port="1"/>
		<edge from-layer="250" from-port="3" to-layer="252" to-port="0"/>
		<edge from-layer="250" from-port="3" to-layer="286" to-port="0"/>
		<edge from-layer="251" from-port="0" to-layer="252" to-port="1"/>
		<edge from-layer="252" from-port="2" to-layer="254" to-port="0"/>
		<edge from-layer="253" from-port="0" to-layer="254" to-port="1"/>
		<edge from-layer="254" from-port="2" to-layer="255" to-port="0"/>
		<edge from-layer="255" from-port="1" to-layer="257" to-port="0"/>
		<edge from-layer="256" from-port="0" to-layer="257" to-port="1"/>
		<edge from-layer="257" from-port="2" to-layer="259" to-port="0"/>
		<edge from-layer="258" from-port="0" to-layer="259" to-port="1"/>
		<edge from-layer="259" from-port="2" to-layer="260" to-port="0"/>
		<edge from-layer="260" from-port="1" to-layer="262" to-port="0"/>
		<edge from-layer="261" from-port="0" to-layer="262" to-port="1"/>
		<edge from-layer="262" from-port="2" to-layer="264" to-port="0"/>
		<edge from-layer="263" from-port="0" to-layer="264" to-port="1"/>
		<edge from-layer="264" from-port="2" to-layer="265" to-port="0"/>
		<edge from-layer="265" from-port="1" to-layer="267" to-port="0"/>
		<edge from-layer="266" from-port="0" to-layer="267" to-port="1"/>
		<edge from-layer="267" from-port="2" to-layer="269" to-port="0"/>
		<edge from-layer="268" from-port="0" to-layer="269" to-port="1"/>
		<edge from-layer="269" from-port="2" to-layer="270" to-port="0"/>
		<edge from-layer="270" from-port="1" to-layer="272" to-port="0"/>
		<edge from-layer="271" from-port="0" to-layer="272" to-port="1"/>
		<edge from-layer="272" from-port="2" to-layer="274" to-port="0"/>
		<edge from-layer="273" from-port="0" to-layer="274" to-port="1"/>
		<edge from-layer="274" from-port="2" to-layer="275" to-port="0"/>
		<edge from-layer="275" from-port="1" to-layer="277" to-port="0"/>
		<edge from-layer="276" from-port="0" to-layer="277" to-port="1"/>
		<edge from-layer="277" from-port="2" to-layer="279" to-port="0"/>
		<edge from-layer="278" from-port="0" to-layer="279" to-port="1"/>
		<edge from-layer="279" from-port="2" to-layer="280" to-port="0"/>
		<edge from-layer="280" from-port="1" to-layer="282" to-port="0"/>
		<edge from-layer="281" from-port="0" to-layer="282" to-port="1"/>
		<edge from-layer="282" from-port="2" to-layer="284" to-port="0"/>
		<edge from-layer="283" from-port="0" to-layer="284" to-port="1"/>
		<edge from-layer="284" from-port="2" to-layer="319" to-port="0"/>
		<edge from-layer="285" from-port="0" to-layer="286" to-port="1"/>
		<edge from-layer="286" from-port="2" to-layer="288" to-port="0"/>
		<edge from-layer="287" from-port="0" to-layer="288" to-port="1"/>
		<edge from-layer="288" from-port="2" to-layer="289" to-port="0"/>
		<edge from-layer="289" from-port="1" to-layer="291" to-port="0"/>
		<edge from-layer="290" from-port="0" to-layer="291" to-port="1"/>
		<edge from-layer="291" from-port="2" to-layer="293" to-port="0"/>
		<edge from-layer="292" from-port="0" to-layer="293" to-port="1"/>
		<edge from-layer="293" from-port="2" to-layer="294" to-port="0"/>
		<edge from-layer="294" from-port="1" to-layer="296" to-port="0"/>
		<edge from-layer="295" from-port="0" to-layer="296" to-port="1"/>
		<edge from-layer="296" from-port="2" to-layer="298" to-port="0"/>
		<edge from-layer="297" from-port="0" to-layer="298" to-port="1"/>
		<edge from-layer="298" from-port="2" to-layer="299" to-port="0"/>
		<edge from-layer="299" from-port="1" to-layer="301" to-port="0"/>
		<edge from-layer="300" from-port="0" to-layer="301" to-port="1"/>
		<edge from-layer="301" from-port="2" to-layer="303" to-port="0"/>
		<edge from-layer="302" from-port="0" to-layer="303" to-port="1"/>
		<edge from-layer="303" from-port="2" to-layer="304" to-port="0"/>
		<edge from-layer="304" from-port="1" to-layer="306" to-port="0"/>
		<edge from-layer="305" from-port="0" to-layer="306" to-port="1"/>
		<edge from-layer="306" from-port="2" to-layer="308" to-port="0"/>
		<edge from-layer="307" from-port="0" to-layer="308" to-port="1"/>
		<edge from-layer="308" from-port="2" to-layer="309" to-port="0"/>
		<edge from-layer="309" from-port="1" to-layer="311" to-port="0"/>
		<edge from-layer="310" from-port="0" to-layer="311" to-port="1"/>
		<edge from-layer="311" from-port="2" to-layer="313" to-port="0"/>
		<edge from-layer="312" from-port="0" to-layer="313" to-port="1"/>
		<edge from-layer="313" from-port="2" to-layer="314" to-port="0"/>
		<edge from-layer="314" from-port="1" to-layer="316" to-port="0"/>
		<edge from-layer="315" from-port="0" to-layer="316" to-port="1"/>
		<edge from-layer="316" from-port="2" to-layer="318" to-port="0"/>
		<edge from-layer="317" from-port="0" to-layer="318" to-port="1"/>
		<edge from-layer="318" from-port="2" to-layer="319" to-port="1"/>
		<edge from-layer="319" from-port="3" to-layer="355" to-port="0"/>
		<edge from-layer="319" from-port="3" to-layer="321" to-port="0"/>
		<edge from-layer="320" from-port="0" to-layer="321" to-port="1"/>
		<edge from-layer="321" from-port="2" to-layer="323" to-port="0"/>
		<edge from-layer="322" from-port="0" to-layer="323" to-port="1"/>
		<edge from-layer="323" from-port="2" to-layer="324" to-port="0"/>
		<edge from-layer="324" from-port="1" to-layer="326" to-port="0"/>
		<edge from-layer="325" from-port="0" to-layer="326" to-port="1"/>
		<edge from-layer="326" from-port="2" to-layer="328" to-port="0"/>
		<edge from-layer="327" from-port="0" to-layer="328" to-port="1"/>
		<edge from-layer="328" from-port="2" to-layer="329" to-port="0"/>
		<edge from-layer="329" from-port="1" to-layer="331" to-port="0"/>
		<edge from-layer="330" from-port="0" to-layer="331" to-port="1"/>
		<edge from-layer="331" from-port="2" to-layer="333" to-port="0"/>
		<edge from-layer="332" from-port="0" to-layer="333" to-port="1"/>
		<edge from-layer="333" from-port="2" to-layer="334" to-port="0"/>
		<edge from-layer="334" from-port="1" to-layer="336" to-port="0"/>
		<edge from-layer="335" from-port="0" to-layer="336" to-port="1"/>
		<edge from-layer="336" from-port="2" to-layer="338" to-port="0"/>
		<edge from-layer="337" from-port="0" to-layer="338" to-port="1"/>
		<edge from-layer="338" from-port="2" to-layer="339" to-port="0"/>
		<edge from-layer="339" from-port="1" to-layer="341" to-port="0"/>
		<edge from-layer="340" from-port="0" to-layer="341" to-port="1"/>
		<edge from-layer="341" from-port="2" to-layer="343" to-port="0"/>
		<edge from-layer="342" from-port="0" to-layer="343" to-port="1"/>
		<edge from-layer="343" from-port="2" to-layer="344" to-port="0"/>
		<edge from-layer="344" from-port="1" to-layer="346" to-port="0"/>
		<edge from-layer="345" from-port="0" to-layer="346" to-port="1"/>
		<edge from-layer="346" from-port="2" to-layer="348" to-port="0"/>
		<edge from-layer="347" from-port="0" to-layer="348" to-port="1"/>
		<edge from-layer="348" from-port="2" to-layer="349" to-port="0"/>
		<edge from-layer="349" from-port="1" to-layer="351" to-port="0"/>
		<edge from-layer="350" from-port="0" to-layer="351" to-port="1"/>
		<edge from-layer="351" from-port="2" to-layer="353" to-port="0"/>
		<edge from-layer="352" from-port="0" to-layer="353" to-port="1"/>
		<edge from-layer="353" from-port="2" to-layer="388" to-port="0"/>
		<edge from-layer="354" from-port="0" to-layer="355" to-port="1"/>
		<edge from-layer="355" from-port="2" to-layer="357" to-port="0"/>
		<edge from-layer="356" from-port="0" to-layer="357" to-port="1"/>
		<edge from-layer="357" from-port="2" to-layer="358" to-port="0"/>
		<edge from-layer="358" from-port="1" to-layer="360" to-port="0"/>
		<edge from-layer="359" from-port="0" to-layer="360" to-port="1"/>
		<edge from-layer="360" from-port="2" to-layer="362" to-port="0"/>
		<edge from-layer="361" from-port="0" to-layer="362" to-port="1"/>
		<edge from-layer="362" from-port="2" to-layer="363" to-port="0"/>
		<edge from-layer="363" from-port="1" to-layer="365" to-port="0"/>
		<edge from-layer="364" from-port="0" to-layer="365" to-port="1"/>
		<edge from-layer="365" from-port="2" to-layer="367" to-port="0"/>
		<edge from-layer="366" from-port="0" to-layer="367" to-port="1"/>
		<edge from-layer="367" from-port="2" to-layer="368" to-port="0"/>
		<edge from-layer="368" from-port="1" to-layer="370" to-port="0"/>
		<edge from-layer="369" from-port="0" to-layer="370" to-port="1"/>
		<edge from-layer="370" from-port="2" to-layer="372" to-port="0"/>
		<edge from-layer="371" from-port="0" to-layer="372" to-port="1"/>
		<edge from-layer="372" from-port="2" to-layer="373" to-port="0"/>
		<edge from-layer="373" from-port="1" to-layer="375" to-port="0"/>
		<edge from-layer="374" from-port="0" to-layer="375" to-port="1"/>
		<edge from-layer="375" from-port="2" to-layer="377" to-port="0"/>
		<edge from-layer="376" from-port="0" to-layer="377" to-port="1"/>
		<edge from-layer="377" from-port="2" to-layer="378" to-port="0"/>
		<edge from-layer="378" from-port="1" to-layer="380" to-port="0"/>
		<edge from-layer="379" from-port="0" to-layer="380" to-port="1"/>
		<edge from-layer="380" from-port="2" to-layer="382" to-port="0"/>
		<edge from-layer="381" from-port="0" to-layer="382" to-port="1"/>
		<edge from-layer="382" from-port="2" to-layer="383" to-port="0"/>
		<edge from-layer="383" from-port="1" to-layer="385" to-port="0"/>
		<edge from-layer="384" from-port="0" to-layer="385" to-port="1"/>
		<edge from-layer="385" from-port="2" to-layer="387" to-port="0"/>
		<edge from-layer="386" from-port="0" to-layer="387" to-port="1"/>
		<edge from-layer="387" from-port="2" to-layer="388" to-port="1"/>
		<edge from-layer="388" from-port="3" to-layer="390" to-port="0"/>
		<edge from-layer="389" from-port="0" to-layer="390" to-port="1"/>
		<edge from-layer="390" from-port="2" to-layer="392" to-port="0"/>
		<edge from-layer="391" from-port="0" to-layer="392" to-port="1"/>
		<edge from-layer="392" from-port="2" to-layer="393" to-port="0"/>
		<edge from-layer="393" from-port="1" to-layer="395" to-port="0"/>
		<edge from-layer="394" from-port="0" to-layer="395" to-port="1"/>
		<edge from-layer="395" from-port="2" to-layer="397" to-port="0"/>
		<edge from-layer="396" from-port="0" to-layer="397" to-port="1"/>
		<edge from-layer="397" from-port="2" to-layer="398" to-port="0"/>
		<edge from-layer="398" from-port="1" to-layer="400" to-port="0"/>
		<edge from-layer="399" from-port="0" to-layer="400" to-port="1"/>
		<edge from-layer="400" from-port="2" to-layer="402" to-port="0"/>
		<edge from-layer="401" from-port="0" to-layer="402" to-port="1"/>
		<edge from-layer="402" from-port="2" to-layer="403" to-port="0"/>
		<edge from-layer="403" from-port="1" to-layer="405" to-port="0"/>
		<edge from-layer="404" from-port="0" to-layer="405" to-port="1"/>
		<edge from-layer="405" from-port="2" to-layer="407" to-port="0"/>
		<edge from-layer="406" from-port="0" to-layer="407" to-port="1"/>
		<edge from-layer="407" from-port="2" to-layer="408" to-port="0"/>
		<edge from-layer="408" from-port="1" to-layer="410" to-port="0"/>
		<edge from-layer="409" from-port="0" to-layer="410" to-port="1"/>
		<edge from-layer="410" from-port="2" to-layer="412" to-port="0"/>
		<edge from-layer="411" from-port="0" to-layer="412" to-port="1"/>
		<edge from-layer="412" from-port="2" to-layer="413" to-port="0"/>
		<edge from-layer="413" from-port="1" to-layer="415" to-port="0"/>
		<edge from-layer="414" from-port="0" to-layer="415" to-port="1"/>
		<edge from-layer="415" from-port="2" to-layer="417" to-port="0"/>
		<edge from-layer="416" from-port="0" to-layer="417" to-port="1"/>
		<edge from-layer="417" from-port="2" to-layer="418" to-port="0"/>
		<edge from-layer="418" from-port="1" to-layer="420" to-port="0"/>
		<edge from-layer="419" from-port="0" to-layer="420" to-port="1"/>
		<edge from-layer="420" from-port="2" to-layer="422" to-port="0"/>
		<edge from-layer="421" from-port="0" to-layer="422" to-port="1"/>
		<edge from-layer="422" from-port="2" to-layer="423" to-port="0"/>
	</edges>
	<meta_data>
		<MO_version value="2021.4.1-3926-14e67d86634-releases/2021/4"/>
		<cli_parameters>
			<caffe_parser_path value="DIR"/>
			<data_type value="float"/>
			<disable_nhwc_to_nchw value="False"/>
			<disable_omitting_optional value="False"/>
			<disable_resnet_optimization value="False"/>
			<disable_weights_compression value="False"/>
			<enable_concat_optimization value="False"/>
			<enable_flattening_nested_params value="False"/>
			<enable_ssd_gluoncv value="False"/>
			<extensions value="DIR"/>
			<framework value="caffe"/>
			<freeze_placeholder_with_value value="{}"/>
			<generate_deprecated_IR_V7 value="False"/>
			<input_model value="DIR\pose_iter_440000.caffemodel"/>
			<input_model_is_text value="False"/>
			<input_proto value="DIR\openpose_pose_coco.prototxt"/>
			<k value="DIR\CustomLayersMapping.xml"/>
			<keep_shape_ops value="True"/>
			<legacy_ir_generation value="False"/>
			<legacy_mxnet_model value="False"/>
			<log_level value="ERROR"/>
			<mean_scale_values value="{}"/>
			<mean_values value="()"/>
			<model_name value="pose_iter_440000"/>
			<output_dir value="DIR"/>
			<placeholder_data_types value="{}"/>
			<progress value="False"/>
			<remove_memory value="False"/>
			<remove_output_softmax value="False"/>
			<reverse_input_channels value="False"/>
			<save_params_from_nd value="False"/>
			<scale_values value="()"/>
			<silent value="False"/>
			<static_shape value="False"/>
			<stream_output value="False"/>
			<transform value=""/>
			<unset unset_cli_parameters="batch, counts, disable_fusing, disable_gfusing, finegrain_fusing, input, input_checkpoint, input_meta_graph, input_shape, input_symbol, mean_file, mean_file_offsets, move_to_preprocess, nd_prefix_name, output, placeholder_shapes, pretrained_model_name, saved_model_dir, saved_model_tags, scale, tensorboard_logdir, tensorflow_custom_layer_libraries, tensorflow_custom_operations_config_update, tensorflow_object_detection_api_pipeline_config, tensorflow_use_custom_operations_config, transformations_config"/>
		</cli_parameters>
	</meta_data>
</net>
